trained_models/sigma_75.model (torch_old, 255742 bytes, 4 tensors)

apply_A.weight f4 [175, 1, 11, 11]
00000000: 3ba5 4fbe 0977 9bbd e902 2bbb d74b b7bd
00000010: b09c 833d c425 34bc 291e 1bbe fc68 cebd
00000020: a295 133e 201c b13d 0920 92bd 2c00 4ebe
00000030: 08b7 07be 6bf8 81be 7a4e 57bd b6be c4bb
00000040: 5b25 a13d 36ef 103e f13e 603d dd6e c7bd
00000050: 911a 133e e548 1d3e 2f22 363f 17eb 22be
00000060: dc21 b6be 3b06 883e 31f9 19be 668b a5bd
00000070: c911 b43d d865 f6bd 0954 113d 9416 803d
00000080: 007e 1c3e 258b 363e 61ed c1bd 6262 e1bc
00000090: cd0e 6a3e 1993 33be 3a96 d5bd 4dda 17bb
000000a0: 7cf0 dd3d 3ee7 7bbd 55b4 91be 65ef 38bd
000000b0: 8a47 abbd 7d79 d33c 88a4 9abd da6a 16bd
000000c0: 930b 1bbe 3bc0 f6bd ef13 853d 6b1f 553d
000000d0: 3db9 133e 1d8c bfbb 2c7a df3c 4250 763c
000000e0: 0f20 d13d f76f 23bc 6cc5 e03d c469 adbc
000000f0: da8a 9d3b 3e3c edbd 63dc 27bd 6d0a 5c3d
00000100: 24e8 b03d 7ba6 1fbe d84b c0bc c230 08be
00000110: ca0c 6fbe 07c7 f0bc 7e29 b43d f52b 33bc
00000120: 0648 30bd c038 04be 7a67 03bc 75d9 cebd
00000130: e7b5 ec3d 9972 b43b ff30 873e b403 c9bc
00000140: b5e1 b2bd bf9d 1e3e 503e 2d3e cea3 2c3c
00000150: 489d 07be a772 883d 53f8 153d 07df c83c
00000160: 7c8e 34bd 175e 8a3e 7a73 8dbd aa13 d8be
00000170: a0f2 d63d 34f0 743d 7729 293e 5586 57be
00000180: f4e4 cbbd 7311 c3be a16c 6fbe 0d00 36bd
00000190: b977 e53d 67b6 ffbc b471 4ebd 5012 6d3e
000001a0: bc41 29bd 182b e83d 96bb 793e 577a ce3e
000001b0: 9ce8 4abe 009a 34be df82 95be 4c08 6b3e
000001c0: 4424 443e bd9b 663e b288 84be db6e ab3b
000001d0: 2779 56be e86c c53d 6528 a0bc 1efc 07bd
000001e0: a441 b33d 4474 a6bd 8be9 c4bd b44a e9bd
000001f0: 7428 e93c a7b6 a8bc 9e16 c83d 2ae2 cfb9
00000200: 0b23 4abe 2f3c 203d 9b7c 583e 97ac 3cbd
00000210: 5ec7 d8bd fb32 dbbd 0f0e 793c c306 22bd
00000220: b6b6 d5bd 0160 74bd a918 353d 3d3f f8bc
00000230: 3795 983c 7fc5 cdbb 233a b3bd 0e6f 80be
00000240: e0d7 02be 6c83 973d 6cab 2a3a b2a4 06bd
00000250: 944a 403e 9d30 c23c e8f2 2c3d ef56 8c3d
00000260: ff37 943d 52b3 e13d 256d 00bd a705 6c3d
00000270: eafe c4bc fc03 f13c 7b34 643d 1e3e 52bd
00000280: c963 10be 43aa edbc 212b fb3d d3b5 2a3d
00000290: 2811 213e 69e0 c73d cf75 05be fd91 7c3d
000002a0: 4d38 8b3c 2d88 5e3d 98f2 ffbd 783e eb3d
000002b0: 6f34 bbbd 1091 4e3c af51 a53d 8dcc c4bd
000002c0: 79a1 fcbb 2400 d93b 0af2 ce3b 0e65 05bc
000002d0: d6b1 293e 6828 163c 9264 bdbc 4d17 173d
000002e0: 11d3 b5bd 50d6 a93c 4436 86bd 8190 3ebd
000002f0: efac a53d 4886 583c a9ce 81bd 2eea 4f3d
00000300: 1416 6abd 8eea ac3b 4638 5abc 5dff 1abe
00000310: ab0e 103d e419 5e3d 8a33 193d 0eb5 e2bc
00000320: f805 463e 1326 31bd e38c a6bd 28ab 643d
00000330: 8243 13bc 2cec 003e 78f8 21bc b655 8bbd
00000340: 6dc0 35be 845c 0ebe c41d 1bbd eef2 943d
00000350: 74ed 843d 61e3 463a 5d84 e0bc 3ab8 0fbe
00000360: bfbe a53c eb41 093e 6106 06be 35c4 44bd
00000370: ec79 e83b e824 35bd b274 0f3c 1108 033e
00000380: 58c5 d5bd ee9a 41bd 4dd3 c0bd 9dbe 37be
00000390: 366a 0d3e 611a 173d eb5c ce3c 2fd1 b3bd
000003a0: 69e0 a5bd 2b57 de3c aafc 0f3d cc5c 873d
000003b0: c28c 223e af0a ee3c 73c2 3fbb 1dce de3d
000003c0: 20d3 98bd 4dda b1bd fa4e 26be 9e05 e73c
000003d0: e903 e13d 2a5d 053e f298 44be cd7d 9b3d
000003e0: e0e2 d73c 5218 e73c f251 72bc 9ba5 35bb
000003f0: 34f2 c4bd ac1b 02bc ad00 2b3e b8db 053c
-0.20277874 -0.075910635 -0.0026094264 -0.08950012 0.0642637 -0.010995332 -0.15148224 -0.10078618
0.14412549 0.086479425 -0.071350165 -0.20117253 -0.13253415 -0.2538484 -0.052565075 -0.00600418
0.07868453 0.14153752 0.054747526 -0.09737942 0.14365603 0.15359838 0.7114591 -0.15909992
-0.35572708 0.26567253 -0.15036465 -0.08083229 0.08792455 -0.12031144 0.035480533 0.062543064
0.1528244 0.17826517 -0.094691046 -0.027512733 0.22857209 -0.17536582 -0.10429044 -0.002317089
0.108368844 -0.061499827 -0.28457895 -0.04515018 -0.08363254 0.025814766 -0.07550913 -0.036722995
-0.15141134 -0.12048384 0.06497943 0.052031916 0.14426132 -0.00584556 0.027279936 0.015033783
0.10211193 -0.009975425 0.10975155 -0.021168597 0.004807812 -0.11583756 -0.04098166 0.05372088
0.08638027 -0.15590851 -0.023473665 -0.1329985 -0.23344722 -0.029391779 0.087969765 -0.010935773
-0.043037437 -0.12912273 -0.008020276 -0.101000704 0.115581326 0.005506825 0.2640457 -0.024537899
-0.087344564 0.15489863 0.16918302 0.010537101 -0.13243592 0.06662493 0.036613774 0.02452041
-0.044081196 0.2702491 -0.06906791 -0.42202502 0.10495496 0.059799388 0.16519724 -0.21047337
-0.09955779 -0.3809925 -0.23381282 -0.044433642 0.11204476 -0.031214906 -0.050401405 0.23151517
-0.041322455 0.113363445 0.24387965 0.40327713 -0.19815296 -0.17636871 -0.2920141 0.22952384
0.19154459 0.22520347 -0.2588554 0.005231721 -0.20944653 0.09639913 -0.019550512 -0.033199422
0.08752754 -0.08127645 -0.09614857 -0.113912016 0.028461672 -0.020594908 0.09769939 -0.00039650622
-0.1973993 0.039119896 0.21141283 -0.046063032 -0.10584901 -0.10703083 0.015201106 -0.03955723
-0.1043524 -0.05966187 0.04421297 -0.030303592 0.018625839 -0.006279647 -0.08751323 -0.25084728
-0.12777662 0.073981136 0.0006510529 -0.03287191 0.1877845 0.023704821 0.04222384 0.06852519
0.07237243 0.11020531 -0.03135409 0.057622578 -0.024047334 0.029420845 0.05571411 -0.05132877
-0.14100565 -0.029011851 0.122640856 0.041677307 0.15729201 0.097596 -0.13033222 0.061662663
0.01699462 0.054329086 -0.12497443 0.11486524 -0.0914086 0.012607828 0.080722205 -0.096093275
-0.0077096787 0.006622331 0.0063154744 -0.008141769 0.16571745 0.009164907 -0.023119245 0.036887456
-0.08878148 0.020732075 -0.06553319 -0.04652453 0.08089625 0.013215609 -0.063382454 0.05076044
-0.05714996 0.0052769845 -0.013319081 -0.15136476 0.03517024 0.05422391 0.037402667 -0.027674224
0.19338214 -0.0432492 -0.08132341 0.05582729 -0.008988263 0.12590092 -0.0098859 -0.068034574
-0.17749186 -0.1390248 -0.037870184 0.07272898 0.06490603 0.00075869827 -0.027406866 -0.1403512
0.020232556 0.13404052 -0.13088371 -0.04803868 0.0070946123 -0.04422465 0.00875585 0.12796046
-0.10438031 -0.047266893 -0.094153024 -0.17943807 0.13810048 0.03689039 0.025190791 -0.08780133
-0.080994435 0.027141174 0.03515307 0.066094965 0.15874007 0.029057829 -0.0029260188 0.10879157
-0.07462144 -0.08684216 -0.16241065 0.02820092 0.10987074 0.1302382 -0.19198969 0.07592354
0.0263533 0.028209839 -0.014790045 -0.0027717117 -0.09616509 -0.007941168 0.16699477 0.008170061

apply_B.weight f4 [175, 1, 11, 11]
00000000: 527d 1a3c 8707 4c3e ce0c 993d 42bb 66bd
00000010: 180d e7bd c182 fabc 6f00 313a 672b 4bbc
00000020: f2e1 283c dfc0 dfbb 25b9 803a dc36 f1bd
00000030: df3a bc3d 23f6 2b3e 260e 0c3d 7377 32bd
00000040: befa 2fbd 8399 e33c a4b2 203c f2d4 8939
00000050: 2fee 113d e06b 3dbd fb14 c5bd 1fb4 8ebc
00000060: b210 3c3d 030f db3d 4939 953a 6ea7 ec3c
00000070: 1f02 c9bc c653 3c3c 27ad 4ebc 9fff 53bd
00000080: 31be abbb 2b6b 483d 4531 bdbd 4f0c 00be
00000090: 019a d43c 7fb6 0b3e f4ff 3d3d baa3 d5bb
000000a0: 654f 523d 25f7 3cbd f22b 5dbd 86aa a23c
000000b0: 5883 1a3d 5f2f 9e3c fa01 78bd 0286 cabd
000000c0: ce52 f1ba 7b60 cb3d 1b18 223d 6023 143a
000000d0: 6cd6 a9bd 6157 11bb 807b 0a3d 9b09 dcbb
000000e0: 7e96 d83c 3e02 073d 7980 51bd ff20 f0bd
000000f0: a33f 343c e0a1 973d 78d9 c53c 7c24 93bc
00000100: cd4d 11bc 2fd4 d3bb 1819 77bc 36d8 fe3c
00000110: b257 52bd 5092 a13c 43ad c3bc 015e bdbd
00000120: f94f 223d aaac 1d3d 4b61 323b 1011 6ebd
00000130: c02d d7bc 8b6f 8d3a c21b 7d3d 7da2 69bd
00000140: 3489 443d bf49 263d 70c1 32bd fc01 b3bd
00000150: 63d6 bf3d 1c95 b73d e022 723c bf39 dbbc
00000160: 3de3 2abc c62c aebc 7609 82bd c60e de3c
00000170: fd08 b23c 8790 c2bc 7a0d 7bbd 7cb0 05be
00000180: bfb6 833d b609 283d 9a74 35bd c053 e73c
00000190: 26da acbc 09cc 97bd 2db4 37bd 12d4 0dbb
000001a0: 984b 903c 3720 4b3c 608e 97bd d4b7 d1bc
000001b0: 2ec9 993d a0e3 9a3d 6799 46bb 72e8 f43b
000001c0: 0702 e13b 37a3 993b 09cb 5d3d d7f0 d03c
000001d0: be9b d63c 3619 08bd ee39 e9bd bf01 05bd
000001e0: f987 013e a8e6 dbbd f25c aabd b626 90bd
000001f0: ef19 8cbd 77c7 f9bc 08d5 99bb 76b7 933b
00000200: 4d8c 8fbd cf84 df3c 880a 833d 85f0 403d
00000210: 3575 dbbd 95b7 dcbc 658a 073d a7a1 b03c
00000220: 2c68 cf3c b9dc 2cbb daf8 e23c cd64 0ebd
00000230: d8c5 b93d 3182 353d 2d70 35bd 9013 d8bd
00000240: 63bf e13d 1148 9c3d 4c54 efbb 3260 b3bd
00000250: 17c8 d73d 412f eb3c f094 05bd 230a 3c3d
00000260: 5247 b43c 15d1 f93c 71e5 8cbd 4492 d6bb
00000270: 0717 e0bd a3ea 233c 9230 a6bc 5ccc 2b3c
00000280: 9c40 73bd 45cb 0cbd 944c be3d 9458 7dbc
00000290: 23a8 693d 0aae 7c3d f0fa 58bc 4217 833c
000002a0: 5dc3 b3bc 24c0 fcbc 255b 06bd 2c7e dcbc
000002b0: 8e40 d4bc 69ed c53c 2ad0 e43c 2765 d0bb
000002c0: 20f9 a93c b835 e53c 1dd6 d6bb 6831 4ebc
000002d0: cd01 683c a86d 463c 6dee aabc 82ea f93b
000002e0: 3d23 8ebd f5cb 8c3c c95c babc ebd3 053d
000002f0: 6e08 2e3c cf01 243c d0de 2ebd c25f 743c
00000300: 4e90 11bd ea49 733d 5b98 f1bc 18ad c1bd
00000310: d8b7 623c 78e1 ba3d d65c b43d 0f46 baba
00000320: 26bb bc3d 3692 363c 53cf 15bc 6d47 c6bc
00000330: 9f8b 5fbc 1f88 513c ba83 29bd 8675 49bd
00000340: ab9d b6bd cbd4 babb 9c4a 813d 92ae cc3c
00000350: 0e7a 9b3a 9e09 f73c dfe1 87bd 0dce 4fbd
00000360: bf29 5bbd 8fe1 ec3b a98e 82bd f3ee 6cbd
00000370: 2b5d 2e3c e33a 9ebc 651d 823d 9e26 933d
00000380: dd23 03bd f86f 91bd c94d d9bc 372d fcbd
00000390: b622 db3b a5aa de3c f567 873d 89ad b4bc
000003a0: 52cb cf3d 6227 ea3d 2aa8 f03b 89de ab3b
000003b0: 92a8 253d 33ad 57bd 1acf db3c a97e e33d
000003c0: d308 7d3d 9966 cebc 509c 82bd c0b4 803d
000003d0: f252 6d3d 258c 88ba ac35 0dbc dc5d 793c
000003e0: 8afe d7bc 9de4 bd3c 4e36 24bc 387d d13c
000003f0: f86c b53c 1103 143d f9e6 183d 3398 76bd
0.009429293 0.19924746 0.074731454 -0.056330927 -0.11281794 -0.030579926 0.0006752079 -0.012400485
0.010307776 -0.006828412 0.0009820802 -0.11778042 0.09190916 0.16793112 0.03419318 -0.043570947
-0.042963736 0.027783161 0.009808216 0.00026289333 0.03562754 -0.046245456 -0.09623142 -0.017419873
0.04591436 0.10696223 0.001138487 0.02888843 -0.024537144 0.0114945825 -0.012614525 -0.05175745
-0.0052411784 0.04893033 -0.09237913 -0.12504695 0.025952341 0.13643835 0.046386674 -0.006519762
0.051345248 -0.046134133 -0.053996988 0.019856703 0.037722915 0.019309698 -0.06054876 -0.09888841
-0.0018411519 0.099305116 0.03957377 0.0005651023 -0.08292851 -0.0022177326 0.033809185 -0.0067150122
0.026438948 0.032961123 -0.05114791 -0.117250435 0.0110015 0.07403922 0.024151549 -0.017961733
-0.008868647 -0.0064645032 -0.015081666 0.031108957 -0.051353164 0.019723088 -0.023886329 -0.092464454
0.03962705 0.038494743 0.0027218636 -0.05812174 -0.026266932 0.0010790689 0.06179405 -0.057039727
0.04798241 0.040597674 -0.043641508 -0.08740613 0.09367063 0.08963987 0.014778823 -0.026760934
-0.010430154 -0.021261584 -0.06349461 0.027106654 0.021732802 -0.023750557 -0.06129215 -0.13055605
0.064313404 0.041024886 -0.044300653 0.028238177 -0.021100115 -0.074119635 -0.044849563 -0.0021641296
0.01761417 0.012397817 -0.07400203 -0.025600351 0.07509075 0.07562947 -0.0030303837 0.0074739987
0.0068666968 0.004688646 0.054148708 0.025505466 0.02619731 -0.033227168 -0.11388002 -0.03247237
0.12649526 -0.107373536 -0.08318509 -0.070386335 -0.06840884 -0.03049062 -0.0046945848 0.004507954
-0.07009182 0.027285008 0.06398493 0.047104377 -0.10715715 -0.026943007 0.033090968 0.021561457
0.025318228 -0.0026376678 0.027706552 -0.0347641 0.09070939 0.044313613 -0.044296432 -0.10550606
0.11022832 0.07630933 -0.00730375 -0.08758582 0.10536211 0.028709056 -0.03261274 0.045908105
0.022006664 0.030495206 -0.068797 -0.006548198 -0.10941892 0.010004672 -0.020286832 0.010485735
-0.05938779 -0.03437354 0.0929195 -0.015463013 0.057045113 0.061689414 -0.013243422 0.016002301
-0.021943742 -0.030853339 -0.032801766 -0.026915632 -0.025909688 0.024161058 0.027931292 -0.0063597145
0.020748675 0.027979717 -0.006556286 -0.012585022 0.014160586 0.012111105 -0.020865643 0.0076268325
-0.06940315 0.017187098 -0.022749322 0.032672804 0.010622127 0.010010197 -0.04269296 0.014915409
-0.03553801 0.05939666 -0.029491594 -0.09456843 0.013837777 0.09125036 0.088067695 -0.0014211553
0.09215383 0.011143258 -0.009143668 -0.02420398 -0.013644128 0.012788801 -0.04138539 -0.049184345
-0.089167915 -0.0057016364 0.06313059 0.024985585 0.0011861937 0.030155953 -0.06634878 -0.050733615
-0.05350661 0.007229037 -0.063748665 -0.057845067 0.01064233 -0.019315189 0.06353263 0.071851
-0.032016624 -0.071014345 -0.026526349 -0.123133115 0.0066874875 0.027180979 0.06611625 -0.022055404
0.10146202 0.11433293 0.0073442655 0.005245034 0.040443964 -0.05265541 0.026832152 0.11108143
0.061775994 -0.025195407 -0.063774705 0.06284475 0.05794043 -0.0010417743 -0.008618753 0.015220132
-0.02636649 0.0231803 -0.010022713 0.025572404 0.022146687 0.036135737 0.037329648 -0.060203742

apply_C.weight f4 [175, 1, 11, 11]
00000000: 548a 99bc ed9d c6bb 39ff 9c3c 7ae2 4b3c
00000010: 4ade 2dbc 6535 8dbc 9339 0dbb c4ad e1bb
00000020: 3f76 8f3b 7504 4e3b 0eb6 07ba 0cf1 45bd
00000030: 3040 d3bc 5925 e93c 66e3 883d c17f adbb
00000040: 171c f9bc 62c3 803c 7b22 a6bb 0a72 26bc
00000050: 7728 753b 0b9b d1b9 17fd 76bc 6c49 68bd
00000060: 78f3 07bd 47c7 9e3d 4bcd 253d b286 fabc
00000070: 12d3 443b d7fa 01bc 161a 7dbc f711 39bc
00000080: 1cc9 b3bb 5f0b f03c 1f0c 9dbc 103f 9fbd
00000090: 234c a5bc de56 303e 84e9 e4bc 7e8e f2bc
000000a0: 864c 223c a724 eebb 2a1c 2ebc 6b85 c3ba
000000b0: e625 dc3c 598c 0c3d 626a 92bc 0ba8 2bbe
000000c0: 3fd4 253d de9a 413e 5942 bebc db8d 583c
000000d0: 8327 bfb7 15fb 31bb 1265 2a39 94b6 883c
000000e0: 7046 203d 1c2c 0e3d 0210 1a3c f446 49be
000000f0: 690f 843d 520a 143e 24e3 9bbc 2005 bebb
00000100: bdae 053c e44a 3abb 2bea a53b f511 9c3c
00000110: c960 ffba e86b 683d 4d05 fd3c ee18 31be
00000120: 95e9 9b3d fbdd 983d 6267 a7bc 9e27 8cbc
00000130: eb19 44bc e67e 193c ed60 9e3c 70bb b03b
00000140: 7af6 cd3c bf81 643d 1911 26bd 6b49 1bbe
00000150: 88e8 913d 84ac 1c3d 265f e7bb 7e6d 1cbd
00000160: 7d83 703b 099d 0f3c f2d5 023b 772e 763c
00000170: 582d 6a3c 678f f33c 13f0 aabd 4750 8abd
00000180: 7e26 fd3c 5e7d 8d3c 300c 26bc 1cff f6bb
00000190: 681a 2f3b df21 9aba 4a94 3e3c 8d85 033c
000001a0: afce 2a3c e84d 053b 2657 94bd 4ede d2bb
000001b0: 74e9 b93c 460d a93c 769c f5ba 5a60 763a
000001c0: c6b1 1c3c c533 263c a835 89bb 2cb5 903b
000001d0: e893 cb3c bdb0 c1bc 510e cebc 815e 3a3b
000001e0: 6508 853c 8822 993b f80c c63b 2130 a4ba
000001f0: 5c28 43bc 4d06 22bc d413 abbb 9813 10bc
00000200: 8bee 89bb 3544 85bc dd34 7cbc c266 90bc
00000210: 407f 0c3c 8895 313c 3318 993b 1447 0b3a
00000220: 0ba1 0c3b bd82 b7ba 10f8 31ba 34ab 07bb
00000230: 5829 2bbc f9a9 1fbc fd17 63bc 19a8 f2bb
00000240: 1345 d7ba 124f 3439 0f5d 4ebc d655 90bc
00000250: 7104 88bc 7b90 fabb 052d 38bc 3e7a 71bc
00000260: dbd0 32bc 2cda 6abc 4041 b9b8 deb7 933b
00000270: e065 2c3c c47e af3b d3a1 adb9 bf93 08bc
00000280: 54b6 bfbb 73b5 67bc 1142 4cbc f628 1dbc
00000290: 99e6 f5bb 505d b3bb 2062 353b caa0 df3b
000002a0: f967 d33a a576 043c 549c 6fbc 1dfc 0abc
000002b0: c686 16bc bd6f b5bb 2a5d afbb db77 74bb
000002c0: 169e 8fbc 10e3 8abc 5deb 23bc e930 8abc
000002d0: 04c2 9ebb 637f 3fbc 7318 cfbc 17a9 8cbc
000002e0: 6210 7f3b ae29 1fbb b637 a83b 6fa2 89bc
000002f0: c079 acbc e9cd 75bc f902 02bd b9f4 39bc
00000300: aaf1 2fbc 2237 49bc e4b3 bdbb 282f 143c
00000310: 3d81 c73b a6ba 183c 5626 1cbc 37f1 d7bb
00000320: 5c28 cfba e956 c4bb cb77 fdbb 701f 07bc
00000330: 1e91 1aba aa29 46bb c8ee 1d3b 869e 11b9
00000340: c129 43bb ed9f 893a fb26 dd3a 63f9 14bb
00000350: b896 62bc 6b10 9cbc 1b8f ddba efa2 1138
00000360: e8ed c2ba 6257 00bb 780a acbb d138 babb
00000370: 818c fa3a 7374 1b3b 47d4 42bb df56 a4bc
00000380: d4e2 d6bc 0538 2fbc 76b9 b83a 50e4 7ebb
00000390: 1e6a 19bb 9e0a d7bb 4eb1 d3bb b2c5 feb8
000003a0: 7c29 20bb 79ab 41bb 1022 4dbc a9d3 6dbc
000003b0: fb92 d1bb 7858 3f3b 4cd9 83ba 9ae5 3bbb
000003c0: aa51 10bc 7c0f 50bc 1cc1 9f3a 422d 213c
000003d0: a616 693b 60ac 1d3c 0350 043c 8327 49bb
000003e0: 0b38 1ebb 333d 1b3c 97ee 7bb9 2ba6 153c
000003f0: 821e 2b3c 1242 403c a312 b63c add9 cb3b
-0.018742718 -0.0060613067 0.019164668 0.012444133 -0.01061208 -0.017237375 -0.002154921 -0.0068871696
0.0043781097 0.0031435762 -0.00051769696 -0.048325583 -0.025787443 0.028460192 0.06683998 -0.0052947705
-0.030408902 0.015718166 -0.0050700284 -0.010159025 0.0037408152 -0.00039979102 -0.01507499 -0.056710646
-0.033191174 0.07752853 0.040478986 -0.030581806 0.0030033034 -0.00793334 -0.015448114 -0.011295787
-0.0054866206 0.029302297 -0.019170819 -0.077757 -0.020177906 0.17220637 -0.02794338 -0.029608961
0.00990594 -0.007267553 -0.010626832 -0.0014917081 0.02687354 0.034313533 -0.017872993 -0.16763322
0.040485617 0.18906733 -0.023224996 0.013217415 -2.2787373e-05 -0.0027157713 0.00016250115 0.016688623
0.039129674 0.034710035 0.009403231 -0.19655973 0.06448252 0.14457062 -0.019029208 -0.005798951
0.008159337 -0.0028425986 0.0050633154 0.019051531 -0.00194838 0.056743532 0.030886317 -0.17294666
0.076129116 0.074642144 -0.020435039 -0.017108735 -0.01196907 0.009368634 0.019333327 0.005393438
0.025141943 0.055787798 -0.04054365 -0.15164725 0.0712443 0.03825046 -0.007060903 -0.038190357
0.0036699467 0.008765467 0.0019963947 0.0150257265 0.014293037 0.029731466 -0.08346572 -0.06753593
0.030902144 0.017271694 -0.010134742 -0.0075377356 0.002671862 -0.0011759362 0.011632035 0.008027446
0.010425254 0.0020340625 -0.07243185 -0.006435192 0.022694327 0.020636212 -0.0018738646 0.0009398513
0.009563869 0.010144179 -0.0041873045 0.0044161286 0.0248508 -0.023643846 -0.025153311 0.0028437676
0.016239354 0.004673306 0.0060440265 -0.001252655 -0.011911478 -0.009889198 -0.0052208696 -0.008793734
-0.0042093447 -0.016267875 -0.015393463 -0.017627124 0.008575261 0.010838874 0.004672074 0.00053130207
0.0021458294 -0.0014000755 -0.00067889784 -0.002070141 -0.010446869 -0.0097451145 -0.0138607 -0.0074052927
-0.0016423784 0.00017195594 -0.012595429 -0.017619055 -0.01660368 -0.007646618 -0.011241202 -0.014738617
-0.010914053 -0.014334243 -8.833641e-05 0.0045080027 0.010522336 0.005355688 -0.000331177 -0.008336007
-0.0058505926 -0.014142382 -0.012466923 -0.009592285 -0.007504296 -0.00547377 0.0027676895 0.0068245875
0.0016129009 0.008084928 -0.014624674 -0.00848296 -0.009187406 -0.005537002 -0.005351682 -0.0037302885
-0.017531436 -0.016953975 -0.010004845 -0.016869025 -0.004844906 -0.011688086 -0.025280213 -0.017170472
0.0038919677 -0.0024286318 0.0051335944 -0.016801087 -0.021054149 -0.015002706 -0.031741116 -0.01134985
-0.01073877 -0.012281211 -0.005789267 0.009044446 0.0060884045 0.009321844 -0.009530624 -0.0065900343
-0.0015804875 -0.005991806 -0.0077352277 -0.008247241 -0.0005896258 -0.0030237236 0.0024098624 -0.00013887332
-0.0029779526 0.0010499932 0.0016872579 -0.0022731654 -0.013829879 -0.019050797 -0.0016903611 3.4722438e-05
-0.0014871927 -0.0019583334 -0.0052502714 -0.0056830426 0.001911536 0.0023720532 -0.0029728578 -0.020060955
-0.026231207 -0.010694508 0.0014093358 -0.003889341 -0.0023409198 -0.006562545 -0.0064603454 -0.000121484874
-0.002443879 -0.0029551669 -0.012520328 -0.014515796 -0.0063956953 0.0029197019 -0.0010059266 -0.0028670789
-0.008808533 -0.012699004 0.0012188288 0.00983745 0.0035566478 0.009623617 0.008075717 -0.0030693717
-0.002414229 0.00947504 -0.00024026107 0.009133856 0.010444285 0.011734502 0.022225684 0.0062210173

soft_threshold.threshold f4 [1, 175, 1, 1]
00000000: 23b4 943e 4180 3d3d a550 843e 377c f5bb
00000010: 4267 333b 0fcf 7f3e dd98 d43b aaef 833e
00000020: d89d 0d3f 9ba5 9a3e 0ac0 c33e e62a 02bb
00000030: 5216 b63e 0e49 a63e 2cd2 003c 42cf 983e
00000040: a12f 663e 7d82 5f3e 1237 a93e 2963 b53e
00000050: fbd7 c63b 4a25 fc3c 593e 733e 7dea 813c
00000060: 80e4 803e 140a 983e a997 6d3e fc96 983b
00000070: 9030 d93c d633 7f3e 093b 9f3e d5a0 a73e
00000080: c9e3 973e 244b 72bb fc73 fe3b dbc1 423e
00000090: 1eeb 703e c8bf 673e 4dd2 65bc 7d2d 863e
000000a0: 6dbb 5e3c 0e22 813e ef14 973e d380 2ebb
000000b0: 186c 503e d04f 853a 92d2 5d3e aa5a 933e
000000c0: 4a08 573e 8c72 31bb 45d7 ae3e dccc 8b3e
000000d0: 7ad6 9c3b 3055 503e e9f9 973e 3e7d 243c
000000e0: 528d 8e3e 6187 873e 4513 c93b e756 ccbc
000000f0: 4c99 533c ab35 ed3a d1a8 963c 156c ec3b
00000100: 89e3 9f3e 128e 843e 078f e23b ece4 483c
00000110: fc29 be3e aa3a 873e 99e7 b33a 180d 9b3e
00000120: b303 9c3e 56c0 263e bdac 973e e2c6 5a3e
00000130: dbbd 993e 77e4 923e d016 40bc a2d7 08bc
00000140: c26a 26bb c579 363d bd30 7e3e 1163 873b
00000150: b960 823e 4477 b339 9898 b03e 48c7 503e
00000160: 6ec2 173c 8f4c 5abc 34f5 a23e 8b03 963e
00000170: dcf4 923c 64e6 d93b 9be7 2cba 5683 8f3e
00000180: aab8 ea3a d2c9 563d 9d07 883e 1728 463e
00000190: 5940 8e3e b9ab e63a 6cec 4d3c 207c 573b
000001a0: a4de 8f3e fb20 863c 9006 653e aa69 113c
000001b0: 619a 983e 37e5 f53b 338e 813e 1657 083b
000001c0: f16f 0ebb b86b b93e a6af a73e c56e 913b
000001d0: 72c1 213c e9b3 6a3e 4bd9 a93e 9a1d ca3c
000001e0: 82cf 653b 9aa8 543e 60cc 6d3c e0ad 3e3e
000001f0: f0b1 8d3e dee6 84bb 58b5 683e f66c 893e
00000200: a871 d63a 8d6f 713e c296 523e e751 a43e
00000210: 723d 9a3c 9597 3d3e 9671 8c3e 95e5 633e
00000220: 9e49 343e dd15 a4ba c465 7c3e 612e 9f3e
00000230: 9504 513e e9f8 6c3e 2a33 793e e049 923e
00000240: 1976 8b3e 86ae 903d bf87 a1bb f11c 7f3c
00000250: 34e4 b5bb 24ba 853e 7716 a93e 624b ee3b
00000260: 7e9d 033c c410 803d 91a5 a63e 473c a53e
00000270: 3b05 283c 58ca 7a3e c464 323a 327c 963e
00000280: bc2e 713e c23b f03a 800e a2b9 aee7 693e
00000290: fc5c b83c b49f 963e 8724 5e3e 252d a13e
000002a0: 3f21 9d3e 9e02 bf3e e971 9c3e 9d1e be3e
000002b0: b06f bd3b e0de 453e acb7 853c
0.29043683 0.04626489 0.25842777 -0.007491614 0.002737478 0.2498133 0.0064879493 0.25768787
0.55318975 0.30204472 0.38232452 -0.0019861995 0.35563904 0.3247761 0.007862609 0.29845625
0.22479106 0.21827121 0.33049828 0.35427216 0.0060682273 0.0307795 0.23754252 0.015858883
0.25174332 0.2969519 0.23202385 0.0046566706 0.026512414 0.24922118 0.31099728 0.32739893
0.29665974 -0.0036971057 0.0077652913 0.19019262 0.2352719 0.22631752 -0.01402719 0.2620658
0.0135944905 0.25221294 0.2950816 -0.0026627078 0.20353734 0.0010170881 0.21662357 0.2878011
0.20999256 -0.0027076332 0.34148613 0.27304733 0.00478631 0.20344996 0.29682854 0.010039626
0.27842194 0.26470473 0.0061363303 -0.024943782 0.012914967 0.0018097659 0.018391045 0.007215033
0.31228283 0.2588964 0.006914023 0.0122616105 0.37141407 0.26411945 0.0013725638 0.30283427
0.30471572 0.16284308 0.29623976 0.2136493 0.3002766 0.2868993 -0.011724189 -0.008352192
-0.0025393222 0.044549722 0.2482328 0.0041316827 0.2546442 0.000342304 0.3449142 0.2038852
0.009262664 -0.013323917 0.318277 0.29299578 0.017939024 0.006649779 -0.0006595791 0.2802989
0.0017907817 0.052438565 0.26568308 0.1935123 0.27783468 0.0017598785 0.012568574 0.003288038
0.2809955 0.016373148 0.22365785 0.00887529 0.29805282 0.007504131 0.25303802 0.002080386
-0.0021734203 0.36214995 0.32751197 0.0044382536 0.009872781 0.22920193 0.33173594 0.024672318
0.0035066311 0.20767441 0.014514059 0.18621016 0.27674818 -0.004055842 0.22725427 0.26840943
0.0016360776 0.2357771 0.20565322 0.32093737 0.018828128 0.18514855 0.2743041 0.22255547
0.17606208 -0.0012518723 0.24648196 0.31090072 0.20411904 0.23141827 0.24335924 0.28571987
0.2723854 0.07064538 -0.0049295123 0.015570865 -0.0055508856 0.26118577 0.33024952 0.00727217
0.0080331545 0.06253198 0.32548192 0.3227255 0.010255153 0.2449125 0.00068051764 0.29391629
0.23552984 0.0018328356 -0.0003090985 0.22842285 0.022505276 0.2941872 0.21693622 0.31479755
0.30689427 0.37306684 0.30555657 0.3713273 0.0057811365 0.19323301 0.016322933
