trained_models/sigma_50.model (torch_old, 255742 bytes, 4 tensors)

apply_A.weight f4 [175, 1, 11, 11]
000000 ec 2d 78 3e 4d 5a 7e 3e 2d 0d d0 3d 6d b1 ef bd
       0.24236268 0.24839135 0.10158763 -0.11703763
000010 42 eb c0 be d7 a1 85 3e 8a d3 99 bc 74 0f 03 be
       -0.37679487 0.26100037 -0.018777627 -0.12798864
000020 56 eb 03 be 3f 07 52 be 38 8f 05 be b6 e4 98 3c
       -0.12882742 -0.20510577 -0.13042915 0.018663745
000030 cf 68 7a 3e 56 ae 05 3d 4a 70 34 3d 30 d9 0a bd
       0.24454044 0.032636963 0.0440524 -0.033898532
000040 26 55 4e bd 2b de 0b 3e 8a 2d 5f be 78 2b 94 3d
       -0.050374173 0.13658969 -0.21794716 0.072348535
000050 9e a2 18 be eb a9 84 bd 21 d5 ca bd ea 68 59 be
       -0.14905784 -0.06477722 -0.09903932 -0.21231428
000060 64 a9 d9 be 56 03 01 3e c0 b2 05 3b 57 9f 59 3e
       -0.42512047 0.12598929 0.0020400733 0.2125219
000070 7c d0 3b 3e ef 97 be bd d0 1d a6 3d cc 25 f0 3d
       0.18341249 -0.09306323 0.08111155 0.11725959
000080 fc eb 6d 3e 71 a6 6c 3d 5e 51 d8 bc 92 46 1b 3e
       0.23234552 0.05777592 -0.026405986 0.15163639
000090 7a f6 10 be ea f7 45 3c eb 48 05 be df 5b 4e 3e
       -0.14156523 0.012083033 -0.13016097 0.20152234
0000a0 9e f0 0c 3e 93 1e f0 3b c7 ed 2a be 39 97 80 bd
       0.13763663 0.0073278635 -0.16692267 -0.062788434
0000b0 db 75 26 3d 53 b5 0b 3e 9d b4 67 be 66 03 1b be
       0.04063974 0.13643388 -0.22627492 -0.15138015
0000c0 8f 3d 35 3d 60 3e bc bd 22 9f e6 39 0c d9 ba 3d
       0.04424816 -0.091915846 0.00043987582 0.0912343
0000d0 0c ef 01 bd 7b 07 db 3d b7 33 fd ba b1 ee 1d bc
       -0.031722113 0.10694786 -0.001931778 -0.009639428
0000e0 9d f8 8d bd 9e 99 c0 bd cf 51 d3 3d c3 34 62 be
       -0.06932185 -0.094043 0.10318338 -0.2209044
0000f0 3d 0f 61 3d 20 6d 87 bd ff 7e b7 3b e0 7b b2 3d
       0.054946173 -0.06612611 0.005599856 0.087150335
000100 83 3b bf bd e8 34 25 bc 3a 71 4b 3d ab 28 88 3d
       -0.09337523 -0.010083415 0.04966853 0.06648382
000110 36 96 8e be 03 62 36 bb 03 fe 99 bc 63 a9 46 bd
       -0.27848977 -0.0027829416 -0.01879788 -0.048501384
000120 8f a3 86 3d 9a 08 08 bd 29 8b bd 3c c3 7f aa 3d
       0.06574165 -0.033211328 0.023137646 0.0832515
000130 39 96 ac 3c db c4 04 3e 04 27 49 3e 51 33 00 be
       0.021067725 0.1296572 0.1964379 -0.12519576
000140 23 00 7e 3e 88 b1 ae bd 57 91 a5 bd 13 c2 7b 3d
       0.2480474 -0.08529955 -0.08084362 0.06146438
000150 a8 14 8c bd 29 72 b9 3b c2 d3 ac bd 0c 80 6b bc
       -0.06839877 0.005659361 -0.08438827 -0.0143737905
000160 34 0a 0d be 0a f7 64 be d2 58 5f 3e 15 a2 a5 3d
       -0.13773423 -0.22359863 0.21811226 0.08087555
000170 31 0f 7f be a1 3c 3e be a2 e0 a8 bd 11 1c 6e 3d
       -0.24908139 -0.18577816 -0.0824597 0.058132235
000180 68 ca ab 3e 4d c3 8d 3e 4f cd 0c 3e de d9 76 3b
       0.3355286 0.27688065 0.13750194 0.003766648
000190 c9 40 0f bd 23 a7 08 be 95 71 95 3e d7 27 a7 bc
       -0.034973893 -0.13345008 0.2918822 -0.02040474
0001a0 30 98 af bd f7 ea b5 3d 58 24 49 3d a0 37 cd bd
       -0.08573949 0.088827066 0.049106926 -0.10020375
0001b0 f7 8d a6 3e 02 16 d6 3d 02 3b 41 3e 40 70 6b 3e
       0.32530186 0.104534164 0.18870166 0.22992039
0001c0 a3 74 86 3d f0 25 06 3f 6b 75 5d be c5 8b 10 be
       0.065652154 0.5240164 -0.21626823 -0.14115818
0001d0 b3 ae a4 be 1d c8 ae 3d 2f a1 be be 6c f0 ac be
       -0.32164535 0.08534262 -0.37232348 -0.33777177
0001e0 80 9c 4e be 29 bc db 3d 47 7a 8f 3d 30 00 3a 3e
       -0.20176888 0.10729248 0.070057444 0.18164134
0001f0 5e dd 2e 3d d1 47 bc 3d dc 34 51 be 88 d8 d0 bd
       0.04269158 0.091933854 -0.2043032 -0.1019755
000200 30 cd de 3c d8 e2 11 be db b6 4a bd a2 39 be bc
       0.02719745 -0.1424669 -0.04949079 -0.02322084
000210 aa e6 5f 3d a5 43 5c 3e ba f1 66 bd f4 15 0b be
       0.054663338 0.2151018 -0.056382872 -0.13582593
000220 a4 06 c6 3b 40 22 3f 3e 24 da df bb 30 8c 23 3e
       0.006043272 0.18665409 -0.0068314243 0.15971446
000230 49 d7 be 3e 0f 85 30 bd 09 f0 7b be 2d 03 b9 bc
       0.37273625 -0.043095645 -0.24603285 -0.022584522
000240 fd b0 4d be 51 0f b3 3d c6 bd 0c bd e9 99 72 3e
       -0.20087047 0.08743156 -0.03436067 0.23691525
000250 14 ea 8f 3e 6f be 9a be 43 8c 2f bc cc f6 51 3e
       0.28108275 -0.30223414 -0.010714593 0.20504302
000260 61 df 0f 3d ef 14 78 bd 71 ed 3f be 97 91 d3 bb
       0.03512514 -0.06056684 -0.1874292 -0.0064565646
000270 d8 23 8c 3e 93 b1 0d bc 1d ef 05 be 34 7d 51 bd
       0.27371097 -0.008648294 -0.13079496 -0.051144794
000280 43 b9 1f 3e 2c 88 ab bd 80 2e 70 bd 0b d2 05 be
       0.15598015 -0.08375582 -0.058638096 -0.13068406
000290 2a 1f 9a bc 0b 86 86 bc 7f 78 6b 3b 80 26 e5 bd
       -0.018813688 -0.016421339 0.0035929976 -0.11188984
0002a0 a3 d4 4d bd 2b a1 6a bd f9 51 95 3c ed 3b 99 bd
       -0.050251614 -0.057282608 0.018227564 -0.07482133
0002b0 08 9c 99 3d c4 04 35 bd 26 9e 26 3e e0 b3 a5 bc
       0.07500464 -0.044193998 0.16271266 -0.020227373
0002c0 f4 a7 dd 3d e3 1a c1 bc cb 1e af bd 5e 09 27 3c
       0.1082305 -0.02357239 -0.08550795 0.010195104
0002d0 ff 86 d0 3d 5b 9f 1d be a0 30 92 3c 2b 08 83 bc
       0.101819985 -0.1539282 0.017845452 -0.015995106
0002e0 ac 53 81 bd 22 e7 c1 bc 8a fe c9 3c 39 6a 98 bd
       -0.06314787 -0.023669783 0.024657506 -0.07442135
0002f0 5a 12 43 be cd 8c fd 3d 1c 69 9a bd 15 b3 d7 3c
       -0.1904997 0.12380371 -0.07539579 0.02633051
000300 16 9c 8d bb 86 80 84 3c 1d 5c 97 bd 9c 79 09 3e
       -0.0043215854 0.016174566 -0.07390616 0.13425297
000310 03 8e 88 3a 6e aa c4 3d e6 22 1c 3e 24 72 9b be
       0.0010418299 0.096028194 0.15247688 -0.3036052
000320 1f d5 ee 3d 77 05 91 3c 41 c7 0d be ca 23 7b 3d
       0.116617434 0.017702801 -0.1384554 0.061313428
000330 5f c2 aa bd 2d 4a e5 3d e7 f5 fd 3d 03 68 7a be
       -0.083378546 0.111957885 0.12400418 -0.2445374
000340 94 bb 1d bd 70 da b9 bd a8 f0 8f be 95 fc 3b be
       -0.038508967 -0.09074867 -0.28113294 -0.18358071
000350 93 88 27 3d 66 d1 22 3d a8 b7 ac 3a 85 47 a1 3c
       0.04090173 0.03975048 0.0013177292 0.019687423
000360 11 4f 1d bc b1 38 35 be d3 6c 91 3e 7f b8 ed 3d
       -0.00960137 -0.17697407 0.2840334 0.116074555
000370 a8 c1 ec bd 68 96 bb 3d 92 85 2c bd 2a 18 15 3e
       -0.115603745 0.09159547 -0.04211957 0.14559999
000380 8b 20 1b be ae 90 24 3d 17 15 82 3d aa 0e 31 be
       -0.15149133 0.04017704 0.06351679 -0.1729075
000390 f8 1a f5 bd 16 3b 14 3e a3 c0 96 bd 87 2e 35 3d
       -0.119680345 0.14475664 -0.07360961 0.044233825
0003a0 2c 49 f0 3d 2a fa 02 be 8e 5d 16 3e 84 56 6f bd
       0.117327064 -0.12790743 0.14684126 -0.058432117
0003b0 fb d9 1a bd 25 3e 57 be a1 28 2b 3e c2 98 d8 bd
       -0.03780554 -0.210198 0.16714717 -0.10576011
0003c0 30 f9 e8 3d c8 da 91 3d b6 c3 79 3c b1 c4 5f bd
       0.11375654 0.07121807 0.015244415 -0.05463094
0003d0 1c f7 4c bd 5c e9 84 bd db 48 b6 3d 4f 60 8b bd
       -0.05004035 -0.06489822 0.08900615 -0.06805479
0003e0 d7 e2 88 3d b2 65 c3 bc a1 ce 54 3d 41 99 80 bc
       0.06683891 -0.023852203 0.05195487 -0.015698077
0003f0 61 a2 99 bc 7a 2b c5 3d a9 c5 41 be fa 8b 81 3e
       -0.018754186 0.09627433 -0.18923058 0.25302106

apply_B.weight f4 [175, 1, 11, 11]
000000 db 33 2a 3c 81 ac 0a 3d 79 fa 9a bc 39 79 61 bc
       0.01038834 0.03385592 -0.018918263 -0.013761812
000010 e4 7c 02 3d 1e 9c 49 3c 0f f4 8c 3c 73 31 ed bc
       0.031857386 0.012305288 0.01720622 -0.028954243
000020 33 14 4c be c2 dc a5 bd 30 7b 0b 3c 0c 2a ea 39
       -0.1992958 -0.08098747 0.008513257 0.00044663285
000030 fe 8b e3 bb da fb a8 3b 70 b3 ae bd 1f 2a 92 3c
       -0.0069441786 0.005156976 -0.08530319 0.01784235
000040 8c 47 a0 bc 84 5c f9 3c 9d 40 a4 3c df 79 52 3d
       -0.019565366 0.030439623 0.020050341 0.051385757
000050 24 d4 b2 bd b6 7d a8 bd bf 9c 69 3b cc 19 4f 3d
       -0.08731869 -0.082271025 0.0035646406 0.05056171
000060 c9 dd 89 3c 40 52 ad 3d 66 0a a4 bd d9 42 87 3d
       0.016829388 0.084629536 -0.08009796 0.06604547
000070 80 b8 70 3d e9 3a f9 3c 13 fe 9d 3d ca 3e b5 3d
       0.058769703 0.030423598 0.077144764 0.08849867
000080 ec c5 a3 3d 44 d4 ea bc a8 f8 26 bd f0 cf ed 3c
       0.07996735 -0.02866567 -0.04076448 0.029029816
000090 ba 7a f2 bc 51 9e 85 3d 09 27 17 bb 22 09 e7 3c
       -0.029599536 0.06524337 -0.0023064038 0.028202597
0000a0 a8 6f 6c 3c 8e b0 52 bd 73 db 16 bc 89 e9 de 3a
       0.014430918 -0.051437907 -0.009207594 0.0017006855
0000b0 08 98 1d 3d de 3d 63 bd 6d 85 df bb 8a f3 80 3d
       0.038475066 -0.055478923 -0.0068213255 0.062964514
0000c0 9c 68 e3 bc 2b 84 5b 3d df 0d 32 3d 61 fd fc 3c
       -0.027759843 0.053592842 0.04347026 0.03088254
0000d0 6d 5d 86 bd 14 7a 87 bc c8 c5 d0 bc 0c 6c a7 bc
       -0.06560788 -0.016537704 -0.025484934 -0.020437263
0000e0 29 7d 41 bd 41 47 b2 3a ab a7 19 3d ed e3 0e bb
       -0.047238503 0.0013601558 0.037513416 -0.0021803335
0000f0 96 f2 89 bd 23 97 27 bc 77 52 c6 3d 1f 13 d1 bc
       -0.06735723 -0.010228905 0.09683698 -0.025521813
000100 05 83 03 3d 53 c9 30 bd 3a 65 7f 3d 7b 6d 67 bd
       0.03210737 -0.043160748 0.062352397 -0.056500893
000110 ea 7b 81 bd 93 29 62 bb 6c cc 43 bd b6 41 29 3d
       -0.06322463 -0.0034509643 -0.047802374 0.041322432
000120 02 92 19 bc c2 ac 85 bd ab c6 48 bd b1 97 e3 3c
       -0.00937319 -0.065270916 -0.04901759 0.027782293
000130 4b 23 c9 3c d3 9c eb bc c3 ae 49 3d 8b 7f c1 bc
       0.024552962 -0.028761303 0.04923893 -0.023620388
000140 b9 77 33 3d a6 a5 1b bd c2 e5 04 bc 07 b6 d4 bc
       0.04381535 -0.03799977 -0.008111419 -0.025965704
000150 28 d1 10 3d 6b d4 c7 3d f4 a0 46 3d ef 9b 9f bc
       0.035355717 0.097573124 0.04849334 -0.019483535
000160 e3 c0 91 3d fe 7b 5d 3c 89 48 8e 3c 06 65 3c 3d
       0.07116868 0.013518332 0.017368572 0.04599478
000170 1a 9e 34 be 96 a9 90 bd ef 1d eb bc c0 d4 b7 ba
       -0.17638436 -0.07063596 -0.028700797 -0.0014025196
000180 b3 e7 36 3e 58 fb d6 3d 45 87 38 bd ea 1d 9e 3c
       0.17861824 0.10497159 -0.045050878 0.019301374
000190 b5 9b d8 3d 34 93 e3 39 6b 82 ac 3d 53 08 11 3d
       0.10576574 0.0004340649 0.08423313 0.03540833
0001a0 76 f3 fd bb e1 dd 1c bc 64 8d a9 bc 77 8a 61 bd
       -0.00774997 -0.009574384 -0.020697303 -0.05506369
0001b0 fb f1 d8 3d 94 91 91 3d 51 cb 89 bc 26 2d c6 bd
       0.10593029 0.07107845 -0.016820582 -0.0967658
0001c0 b0 b9 96 bd 33 f4 b4 3c f5 3b 20 bc e7 f7 6c bc
       -0.07359636 0.0220891 -0.00977992 -0.014463401
0001d0 97 51 ab bd 8b 2a 52 bc 82 82 db bd 25 4a cc bd
       -0.083651714 -0.012827526 -0.10718252 -0.099750794
0001e0 fc 89 03 bd c3 e4 9c bc 3d fe 84 be b2 56 3c bd
       -0.032114014 -0.01915205 -0.25975218 -0.045981117
0001f0 5e 44 58 bd 84 b7 45 bc 2c 29 11 bd b6 83 e9 3c
       -0.052799575 -0.012067679 -0.035439655 0.028505187
000200 78 96 95 3d 61 ab 83 3d e6 99 2d 3e 07 6e 77 3d
       0.0730409 0.06429172 0.16953239 0.060407665
000210 1a 52 fe 3c 31 df c5 bc 92 a9 00 be cc 58 3a 3c
       0.031045008 -0.024154278 -0.12564686 0.01137371
000220 93 e0 41 3c dc 08 fe 3c b8 4e ec bd e9 b3 b5 bd
       0.011833328 0.031010084 -0.11538452 -0.08872206
000230 70 5f a7 3d ba ab e9 3d 93 db b3 3c e3 15 ce 3d
       0.081725 0.11409707 0.021955287 0.10062768
000240 e4 e7 f6 3c de 5e d8 bd b4 de 31 3d c2 4b 29 3c
       0.030139871 -0.105649695 0.043425277 0.0103330035
000250 91 ca 8b bd 59 e9 e1 bd ab f7 56 bd 46 e9 29 bd
       -0.06825746 -0.11030836 -0.05248229 -0.041482233
000260 ba 33 b0 bd 1d f9 a0 3d 31 c4 37 3b 17 ec 5f bd
       -0.08603616 0.078600146 0.0028040523 -0.054668512
000270 f4 9d 3c 3d 62 71 39 bc f8 f0 8c bc 84 44 b6 bc
       0.046049073 -0.0113185365 -0.017204747 -0.022249468
000280 de 88 eb bb 40 22 70 bc 4e f2 c2 bc ce e8 b0 bc
       -0.0071879467 -0.014656603 -0.02379718 -0.021595385
000290 2c 43 3f 3d 74 5a e4 bc 9f 6d 5c 3d cd 0b cf bb
       0.04669492 -0.027875163 0.05381548 -0.0063185454
0002a0 69 4e 40 bc 52 6a 43 3d 16 d4 a6 3c a6 bb 1b bc
       -0.011737444 0.047708817 0.020364802 -0.009505188
0002b0 33 aa bd bc 94 56 ca bd cb 52 e1 3c 79 76 2b bd
       -0.023152446 -0.09879795 0.0275053 -0.04186103
0002c0 81 67 85 bb d2 2d 43 3d e4 ff 94 3c be 20 86 3c
       -0.0040711765 0.04765112 0.018188424 0.016373035
0002d0 1b c8 0d 3d 8c 94 aa 3c 13 f5 01 3d 20 18 cb bb
       0.034614664 0.020822786 0.03172786 -0.0061979443
0002e0 38 e0 c1 bc 54 c5 67 bd 29 bc 50 bd 40 f7 c1 bb
       -0.023666486 -0.05658467 -0.050960694 -0.005919367
0002f0 d7 80 b9 3c 08 10 d9 3d 92 a0 d3 bb 1c 15 08 3c
       0.022644443 0.10598761 -0.0064583505 0.008305814
000300 ee 27 c6 3c 0c 89 93 3c af f7 65 bc 1e f1 84 3d
       0.024188962 0.018009685 -0.014036103 0.06491302
000310 51 48 4c bd 15 05 27 bd 50 f4 b9 3c 6b 86 9b bc
       -0.049873654 -0.04077633 0.022699505 -0.018984994
000320 af f6 4c 3d cf 3f f8 ba 97 d7 b5 3c f5 91 b4 ba
       0.050039943 -0.0018939915 0.022197528 -0.0013776409
000330 e3 58 8a 3c 04 37 d0 3b 38 97 71 3d 0e 0e 61 bd
       0.016888088 0.0063542146 0.058982104 -0.054945044
000340 81 87 86 bc ed 01 12 3c cd f2 d3 3d 9b 26 db 3d
       -0.016422035 0.008911592 0.10349045 0.10700723
000350 f2 2a 36 3d f1 e3 68 3d ff 68 e4 3c 33 0b 94 bd
       0.04447455 0.056858007 0.027882097 -0.072286986
000360 09 a8 74 3c 4c 86 98 bd 12 f3 2e be f3 f9 bd bd
       0.014932641 -0.0744749 -0.17084911 -0.0927619
000370 02 dc da bb 13 49 8b 3d 9f 7f a3 3d 89 ca 81 bc
       -0.006679059 0.06801047 0.07983326 -0.015843647
000380 05 70 72 bd 6b 20 d0 3b d2 97 b7 3d 79 9d 39 3c
       -0.05918886 0.006351521 0.08964504 0.011329048
000390 28 19 06 3d 41 cb 7c bd 19 7d 0a be 61 c3 b3 bc
       0.032738835 -0.061717276 -0.13524283 -0.02194375
0003a0 70 e6 50 3d 3f bc 50 3d 48 24 c3 bc 35 93 51 3d
       0.051001012 0.050960775 -0.023821011 0.05116578
0003b0 97 29 60 3d 52 a8 ee bc 30 eb 59 3d ed 8b 80 3d
       0.054727163 -0.029132996 0.053202808 0.06276689
0003c0 a1 6d a1 3d d2 34 e5 bd 8a 2e 0b 3d 66 65 db 3a
       0.07882238 -0.11191715 0.03397993 0.0016738593
0003d0 ed ef 17 bd ef 50 ab 3d 1c 2d cc 3d 3f bd 06 bc
       -0.037094045 0.08365046 0.099695414 -0.008223831
0003e0 78 50 40 3d 94 69 e8 bc e8 46 12 bd 34 92 af bd
       0.04695174 -0.028370656 -0.035712153 -0.08572808
0003f0 64 bb 3a 3c 6a 3b c9 bd 68 31 56 bc 05 af 2a bd
       0.0113972165 -0.098257855 -0.013073303 -0.041670818

apply_C.weight f4 [175, 1, 11, 11]
000000 7d 18 0b 3b 4a e0 c1 3a 3b f9 83 bb b2 03 fe bb
       0.0021224313 0.0014791575 -0.0040275133 -0.0077519054
000010 85 bb 9c bb 63 5f f7 bb 95 0b b2 bc 35 9e 8d bc
       -0.0047830963 -0.007549213 -0.021734038 -0.017287353
000020 0f aa 52 bb d0 a9 8a bb e2 b6 33 3a 69 c4 b5 bb
       -0.003214482 -0.004231669 0.000685556 -0.0055470956
000030 a3 95 1b ba da d8 be bb 1b a2 48 bc 68 78 00 b8
       -0.00059350784 -0.0058241906 -0.01224568 -3.0629715e-05
000040 e1 b2 fb 3a 7f 24 7d bc 2f b0 a1 bc f8 47 59 bb
       0.001920309 -0.015450596 -0.019737331 -0.003315447
000050 d7 ea 49 bb 6b 8f a5 3b 2d 4f 39 bc e4 c7 94 bc
       -0.0030810141 0.005052497 -0.011310381 -0.018161722
000060 a5 0b 5a bc 64 78 eb bb 61 39 49 bc 36 92 80 3b
       -0.01330844 -0.0071859825 -0.012281747 0.0039236797
000070 a1 fa a7 bb d4 b4 5c bb f3 f0 5b 3a 53 03 84 bb
       -0.005126313 -0.0033677118 0.0008390091 -0.0040287166
000080 97 f8 3a bb 1a b1 00 3c e3 6e 21 3c c5 71 c3 bb
       -0.0028529519 0.007854724 0.009853098 -0.00596449
000090 de 2d 16 bc b0 94 ac 3b d0 50 d2 3b d0 1b bf 3c
       -0.009166209 0.0052667484 0.006418325 0.023328692
0000a0 87 d2 d5 bb 77 b1 8e bb 20 c5 ea bb 9d 78 14 bc
       -0.006525341 -0.0043546516 -0.0071646124 -0.00906196
0000b0 cb 35 bf 3b 5c 2b 11 3c c9 1e 49 ba e3 78 84 3c
       0.00583527 0.008860435 -0.0007672129 0.016170925
0000c0 06 12 04 3d aa 48 05 3d 4b 05 16 3c f3 45 f9 bc
       0.03224375 0.03254 0.009156535 -0.030428862
0000d0 74 05 93 3c 35 88 1f 3c d0 c0 cc ba b5 aa 47 bb
       0.017946936 0.009737064 -0.0015621427 -0.003046674
0000e0 fc b5 d0 3b a4 93 82 3c d8 bc c4 3c 33 96 d1 3c
       0.0063693505 0.015939541 0.024015829 0.025584316
0000f0 1c 36 12 bc e1 7b d8 bb 90 c2 0b bc df a0 01 3c
       -0.0089240335 -0.0066065644 -0.008530274 0.00791189
000100 8d b3 10 bb 41 54 8f bc f2 2b 9c b8 34 32 92 3b
       -0.0022079677 -0.01749623 -7.446845e-05 0.004461551
000110 b0 45 23 3c 16 2b c7 3c fd 19 00 3d 3b 00 5b 3b
       0.009965345 0.024312537 0.031274784 0.0033416885
000120 5a 1d a4 3b 4f 5b a6 bc d9 d3 88 bb 0f 9d c6 ba
       0.005008382 -0.020307211 -0.004175645 -0.0015153008
000130 75 de 97 bb f0 33 4e bb 29 ff 2e 3b 61 2d 12 bc
       -0.0046346732 -0.0031464063 0.002670238 -0.008921952
000140 77 4f 61 3c 86 a5 10 3d 8c 2b a5 3c b5 02 da 3c
       0.013751856 0.035314105 0.020162366 0.026612619
000150 e6 29 3f ba eb 09 cf bb 98 ee f7 bb 73 17 14 39
       -0.0007292315 -0.006318321 -0.0075662844 0.00014123115
000160 22 ee ad bb 54 1b 31 bb de 1c c5 bb 80 62 a4 3c
       -0.0053079287 -0.0027024345 -0.006015404 0.0200665
000170 8d 07 2a 3d 3a 60 0f 3d d5 2a 15 3d ce 4a ed 38
       0.041511107 0.03500388 0.0364178 0.00011314974
000180 71 0d ba ba b3 41 1a bc d8 eb ad bb 71 69 f8 bb
       -0.001419468 -0.009415078 -0.005307656 -0.007580929
000190 b0 8f 90 3b ce 8c 98 b8 6b 9b 99 3b 78 c0 cf 3c
       0.00441166 -7.274152e-05 0.0046877167 0.025360331
0001a0 d1 32 ed 3b 4e ae cf 3c 97 f6 fd 3b f7 de 86 bb
       0.007238724 0.02535167 0.007750343 -0.004115935
0001b0 55 02 10 3b 68 60 bd bb 76 cd 89 bb b3 99 fe b9
       0.0021974046 -0.005779315 -0.004205401 -0.0004856117
0001c0 b1 67 bd 38 16 b6 78 ba 0a f1 bd 3c ab 4d 49 3c
       9.031536e-05 -0.0009487582 0.023186225 0.012286584
0001d0 8b f7 14 3c 18 b2 b7 3c 9a a1 e6 3b 53 eb 16 bb
       0.009092222 0.022423789 0.0070383074 -0.0023028448
0001e0 c5 f5 41 bb 3b be e9 bb f1 62 d8 bb bd 4f 49 bc
       -0.0029595953 -0.007133273 -0.0066035916 -0.0122870775
0001f0 6f 7d fc bb 98 40 09 bc 78 a5 9b bb b7 17 78 3b
       -0.0077053825 -0.008377217 -0.00474995 0.0037855932
000200 54 0d 0b bc e1 21 d4 b9 e0 4a 87 bb 58 17 96 bb
       -0.008487064 -0.00040461033 -0.004128799 -0.0045804195
000210 5b f7 e9 bb d6 10 83 bb 1b 43 46 bc 46 68 30 bc
       -0.007140083 -0.0039998097 -0.01210096 -0.010767048
000220 b4 9b 48 bc 04 75 41 bc 17 b5 9c bb 03 53 17 bc
       -0.012244154 -0.011807684 -0.00478233 -0.0092361
000230 06 47 08 3a 7e 66 44 bb cb 71 f6 bb 5f b2 fe bb
       0.00051985716 -0.0029968317 -0.0075208894 -0.0077727283
000240 4c 11 08 bc fc ba ec bb e0 2c e9 bb 52 7a 76 bc
       -0.008304905 -0.0072244387 -0.007115945 -0.015043812
000250 52 d8 9f bc ad 4e 49 bc 76 1d 5a bc 72 3a c6 b9
       -0.01951233 -0.012286824 -0.013312688 -0.00037809048
000260 7c 6c 85 bb 20 2c 0f bc 88 ce 78 bb e0 4b b1 bb
       -0.0040717702 -0.008738548 -0.00379649 -0.0054106563
000270 b1 bb 97 bb f4 8f 54 bb 1a 24 6b bc 4a 32 e3 bc
       -0.004630529 -0.0032434436 -0.014351869 -0.02773394
000280 e8 e0 03 bd a1 25 fd bc a3 68 94 bc 3b 3b 6c bc
       -0.03219691 -0.030901732 -0.0181163 -0.0144184185
000290 05 d2 46 bc c8 1c 09 ba 5c 17 34 bc a8 d3 23 bc
       -0.0121350335 -0.0005230424 -0.010991897 -0.009999193
0002a0 d4 53 01 bb 7c 37 93 bc 9d ad f2 bc 7f a8 c9 bc
       -0.0019733803 -0.017970793 -0.0296238 -0.024616478
0002b0 13 a1 08 bd 21 75 99 bc 5c 77 50 bc 1e 80 fe bb
       -0.033356737 -0.01873261 -0.01272377 -0.0077667376
0002c0 2a 75 a9 3b 8c 0d 3b 3b 63 65 92 3b 90 9e bb 3a
       0.0051714377 0.002854201 0.0044676526 0.0014314223
0002d0 3e 3d 00 bb d2 0e c1 bb 3c c1 45 3a 30 2b 7e bc
       -0.0019567753 -0.0058916593 0.0007543748 -0.015513226
0002e0 5a c1 31 bc d3 66 17 bb ec ed 24 bb fb 35 58 3b
       -0.010849321 -0.002310206 -0.0025166227 0.003299116
0002f0 c3 48 2e 3c 4f 85 1d 3c 66 b8 c9 3b 31 0d 06 bc
       0.010637465 0.009614303 0.006156015 -0.008181856
000300 ef fd 84 3b 51 2b 0d 3c ce d9 1a bc 60 09 23 bb
       0.0040585916 0.0086162845 -0.009451343 -0.0024877414
000310 02 80 03 ba 9b 06 ee bb e7 74 c2 3a 68 32 47 3b
       -0.0005016328 -0.007263971 0.0014835865 0.0030395035
000320 ee f2 05 3c 93 71 3b 3c 49 6b 09 3b 29 32 03 bb
       0.008175595 0.011440652 0.0020968488 -0.0020018911
000330 8f 74 a5 bb c3 8e 1c bc d4 9a d4 bb 43 9c f1 bb
       -0.0050492953 -0.009555521 -0.0064881835 -0.007373364
000340 81 39 de bb 6a f2 ca 3a f7 16 51 bb 22 e3 39 bb
       -0.0067817573 0.0015483622 -0.0031904557 -0.0028364141
000350 ca 5e 1e 3c 4c 15 38 3c d1 31 e4 3b 9e 90 60 3b
       0.009666154 0.011235546 0.0069639464 0.0034265886
000360 95 12 72 bb 06 0a a0 bb c2 e4 53 bb 00 43 98 bb
       -0.0036937345 -0.0048840074 -0.0032332395 -0.004646659
000370 69 b4 11 3b e7 4a 9b bb 67 cd d7 b8 af 22 2f 3c
       0.0022232777 -0.0047391537 -0.00010290258 0.010689422
000380 1a e2 87 3c fd 2c 61 3c 22 51 05 3c 85 25 05 bb
       0.016587306 0.013743636 0.008137019 -0.0020316553
000390 74 a5 7d bb 4b 3a 1d bb c8 8a 06 bb 7b 28 33 bb
       -0.0038703354 -0.0023991044 -0.0020529497 -0.002733736
0003a0 94 e1 b4 bb 25 ff 90 ba d8 4e cf 3a 4f 25 be 3b
       -0.005520055 -0.0011062367 0.0015816344 0.0058027874
0003b0 d1 9b 3c 3c be 6f 21 3c 14 9a 8e 3a a0 a9 76 bb
       0.011511759 0.009853302 0.0010879659 -0.0037637725
0003c0 44 1f 19 bb 34 c7 dd ba cb ff 9f 3a ea 50 a3 3b
       -0.0023364583 -0.0016920329 0.001220697 0.004984011
0003d0 9f 83 7a 3a e3 d2 01 3b b7 df 52 3a 59 00 03 bb
       0.0009556356 0.0019809536 0.00080442004 -0.001998922
0003e0 3e 2b 24 ba f2 6c c2 3b 60 d5 55 3b 5d 2e ac 3a
       -0.0006262547 0.0059333974 0.0032628402 0.0013136376
0003f0 9a 6d c9 39 9f 23 b1 bc f5 ef 0a bc 46 a3 d3 bb
       0.00038419367 -0.02162343 -0.008480062 -0.0064586727

soft_threshold.threshold f4 [1, 175, 1, 1]
000000 00 44 88 3e a1 4c 22 3e ff 81 73 3e c8 ac de 39
       0.2661438 0.15849544 0.23780058 0.00042471872
000010 e2 10 97 3e 87 2d b9 3e 75 f7 6d 3e 54 89 7d 3b
       0.29505068 0.36167547 0.23238929 0.003868659
000020 c9 3b a9 3a a5 e0 56 3e 91 29 43 3e fd 2b 79 3e
       0.0012911494 0.20984133 0.19058825 0.24333186
000030 22 b0 8e 3b e1 fd 85 3c 64 95 9b 3e 4f a5 2a 3c
       0.0043544928 0.01635641 0.30387414 0.010415389
000040 0e 8e 1b 3e 0a 97 95 3e fe 7e 5b 3e f4 f4 12 3c
       0.15190908 0.29216796 0.21435162 0.008969534
000050 ba b6 6c 3e 19 ad 79 3a 50 08 a6 3e ef 92 49 3e
       0.2311658 0.000952439 0.32428217 0.19684957
000060 b8 6b c1 3b 1c a0 8a 3e 07 3d 45 3e 4a dc 1e 3e
       0.0059027337 0.2707528 0.19261561 0.15513721
000070 84 7b 0b 3b d2 cd 8d 3e 60 7a 54 3e 05 2b 3d 3b
       0.0021283338 0.2769609 0.20749807 0.0028864753
000080 bc fe a6 3e 12 34 37 3e d5 71 80 3e 18 e4 47 3c
       0.32616222 0.17890957 0.25086847 0.012200378
000090 13 29 7b 3e e3 19 68 3e 39 f9 9a 3e fc ef 6a 3e
       0.24527387 0.22666125 0.30268267 0.2294311
0000a0 d3 dd 69 3e d8 44 44 3e 29 52 75 3e 3e db 3c 3e
       0.22838525 0.19166887 0.23957123 0.1844301
0000b0 f8 50 65 3e 80 af 89 3e 07 3e 60 3e bc 62 fc 3d
       0.22394168 0.26891708 0.21898662 0.123235196
0000c0 85 51 d3 3b 36 27 61 3e 5f 0d 6a 3e be c1 7c ba
       0.006448927 0.21987614 0.22856663 -0.0009641907
0000d0 04 84 95 3b d3 5b a1 3e b7 02 c6 3b ff 13 3c 3e
       0.0045628566 0.3151537 0.006042804 0.18367003
0000e0 3f 30 56 ba 16 be d0 3b 34 f3 6b 3c eb a4 6d 3e
       -0.00081706414 0.0063703163 0.014401246 0.23207442
0000f0 b0 3d a1 3b b7 c7 ea 3b 22 51 0b bb 28 b1 43 3c
       0.004920684 0.007164921 -0.0021258076 0.011944093
000100 be df 98 3e 6d db 47 3e fa 1d 1c 3c 01 27 e4 3b
       0.29858202 0.19517298 0.009528631 0.0069626574
000110 46 6e 66 3e ed b9 1c 3c 9e 51 ac 3e 15 9a 60 3c
       0.22503003 0.009565813 0.3365602 0.013708611
000120 34 e4 84 3e a2 8c 9b 3e 83 a4 8e 3e 60 2c 5b 3e
       0.25955355 0.30380732 0.27859887 0.21403646
000130 c1 17 be 3a ca cf a0 3d 31 92 38 3c 56 2b 81 3e
       0.0014502929 0.078521326 0.0112653235 0.25228375
000140 c0 7b 4e 3e 7f 04 95 3e bc 9c 75 3e 3c 69 23 3a
       0.20164394 0.29104993 0.2398557 0.00062336377
000150 64 dd 70 3e 88 bf a0 3b 34 91 15 3e 6a 8f 83 3e
       0.23521954 0.004905645 0.14606172 0.25695354
000160 7c d2 94 3e 71 0b 3d 3e a2 ac 7c 3e 3a 4b 1e 3c
       0.29066837 0.18461396 0.24675229 0.00966149
000170 62 67 96 3e 64 17 3f 3e dc 41 04 ba df 6b 3d 3e
       0.2937575 0.18661267 -0.0005045214 0.18498181
000180 5e 0a 6a 3e 4d a8 27 3e 7b 49 a4 3e cf 88 58 3e
       0.22855517 0.16372795 0.3208731 0.21145938
000190 5a 0a af 3b ec 09 23 3e ce f3 39 3e e1 bd 3f 3e
       0.00534181 0.15921754 0.1815941 0.18724777
0001a0 2a ed 8c 3a bb 11 38 3e 53 e2 61 3d 60 87 8d 3e
       0.0010751833 0.17975514 0.05514748 0.27642345
0001b0 02 d5 82 bb 7d 51 97 3e a0 d3 9f 3e 90 06 7e 3e
       -0.0039926777 0.29554358 0.31216145 0.24807191
0001c0 5e 8e 5b 3e 32 16 12 3c 0d a3 78 3e 81 e1 b9 3e
       0.21441028 0.008916425 0.24280949 0.36304858
0001d0 11 8b 5a 3e 58 2f c1 bb a4 ae 5b 3b f0 f5 a2 3e
       0.21342112 -0.0058955364 0.0033520842 0.3182826
0001e0 76 74 4b 3e 36 d0 5b 3e b9 59 d5 3b e8 f8 46 3e
       0.19868645 0.21466145 0.00651094 0.19430888
0001f0 a7 85 3a 3b d0 79 84 3e 7f c4 f1 ba 3b 58 be 3b
       0.002846101 0.25874186 -0.0018445401 0.0058088577
000200 1f 60 39 3e 1d 70 fa 3d 07 2a 61 3e ba b5 86 3e
       0.18103074 0.12228415 0.21988688 0.2631052
000210 46 3d ce 3e 70 ea 40 3e 83 3e 81 3e 9a f1 6f 3e
       0.40281123 0.18839431 0.25243005 0.23432007
000220 b7 8b 7f 3e d7 b1 57 3e 99 7a 36 3e 2f b3 8d 3e
       0.2495564 0.21063934 0.17820205 0.2767577
000230 02 b2 8f 3d 9f c8 48 3e cb e2 84 bc a7 d9 87 3c
       0.07016374 0.19607781 -0.016221425 0.016583277
000240 1c 14 51 3e af 85 75 3e 8d 2e e4 3d 44 73 86 3e
       0.20417827 0.23976777 0.11141691 0.26259816
000250 79 7d db 3b dd a0 02 3e a3 38 70 3e dd 15 13 bb
       0.006698307 0.12756677 0.23459105 -0.0022443451
000260 00 ad 56 3c 66 5f 3e 3e 20 dd 66 3e c2 be 1f 3e
       0.01310277 0.18591079 0.2254529 0.15600112
000270 81 08 67 3e 4d 25 66 3e 76 3d 57 3e 45 3b 13 3e
       0.22561838 0.22475167 0.21019539 0.14378078
000280 30 5e 74 3e 0e 18 2a 3c e4 aa a4 bc d1 f8 51 3e
       0.23864055 0.010381712 -0.020101018 0.20505072
000290 22 98 12 3e 66 33 82 3e 3a 1f 5d 3c dc bf 48 3e
       0.14315847 0.2542984 0.0134962145 0.19604439
0002a0 31 65 57 3e 2a e3 63 3e de 5f 0f 3c fa 3b d2 3c
       0.21034695 0.22254625 0.008750884 0.025663365
0002b0 af 19 6a 3e 0f dd 29 3e 6b 0a df 3b
       0.2286136 0.16588233 0.006806662
