trained_models/sigma_25.model (torch_old, 255591 bytes, 4 tensors)

apply_A.weight f4 [175, 1, 11, 11]
000000 f6 20 a1 3e 7a d9 01 be 03 ea 11 be 78 b2 7f 3d
       0.3147046 -0.12680617 -0.14249425 0.06242606
000010 7f 83 9f bd 84 e1 30 3c 62 72 fb 3d cd f0 7e be
       -0.07788753 0.010795955 0.12277676 -0.24896546
000020 7b 3c 89 3e a0 39 53 be 3b 50 ad 3d f3 0e 19 3e
       0.26803955 -0.20627451 0.08462568 0.14947109
000030 ac a5 fe bd cf 6c 88 bd 70 22 f0 bd 80 12 b4 3d
       -0.12433943 -0.066613786 -0.117253184 0.08792591
000040 fb 1e 42 3d b3 bf 14 bd 4f b8 40 3e 68 ec ad 3c
       0.047392827 -0.03631563 0.18820308 0.021230891
000050 b8 eb 49 be 71 80 e2 3d c5 8c ad bc 76 23 26 be
       -0.19718826 0.110596545 -0.021185288 -0.16224465
000060 25 63 91 3e 42 0d 3e 3e bd b2 58 be bb 94 01 3e
       0.28395954 0.18559745 -0.21161933 0.12654392
000070 9b 43 1b be 0b bc f8 bc 30 fa c0 3d 1a f5 aa bd
       -0.15162508 -0.030363103 0.094227195 -0.08347531
000080 68 0a 91 3e 03 b1 1b 3c e4 3f 59 3c ab 85 d8 3d
       0.28328252 0.009502652 0.013259862 0.1057237
000090 b3 54 c8 bd 34 94 75 3d f2 1b d9 3c e7 87 ea bc
       -0.0978178 0.05995579 0.026502583 -0.028629256
0000a0 d2 6b c2 3d e4 56 0a be ff 62 63 3e 62 06 53 be
       0.09493221 -0.13509709 0.22205733 -0.20607904
0000b0 61 65 6f bd 70 fb 16 3d 6e a7 8f bd ca 2a 13 3e
       -0.05844629 0.036860883 -0.070143566 0.14371791
0000c0 24 8b 0d bd f6 e8 f9 bd 74 7e c0 bd 15 e0 a2 3c
       -0.034556523 -0.12202637 -0.09399119 0.019882241
0000d0 b8 23 0f bd bc c3 05 bd 86 c6 db 3c bb 78 46 3d
       -0.034946173 -0.03265737 0.026828062 0.04845498
0000e0 56 92 a9 3d de a5 1c be 3f da 02 be b9 25 44 bc
       0.082798645 -0.15297648 -0.12778567 -0.011971884
0000f0 9c 29 88 bd ab c2 1a 3c 27 24 9d bc a1 27 7f 3d
       -0.06648561 0.0094458265 -0.019182278 0.062293652
000100 5c 3a e7 3c ee e3 8e bc 8d 32 12 3b 2f 45 93 bc
       0.02822607 -0.01744267 0.0022307963 -0.017977325
000110 79 a2 9c bc 08 ef b8 3d 82 53 3e 3e 96 90 fa bd
       -0.019120442 0.090299666 0.18586543 -0.12234609
000120 5d 57 48 3e 58 eb 16 b8 97 75 9c bc 79 ce fe 3d
       0.19564576 -3.5981968e-05 -0.01909904 0.12441725
000130 c6 90 40 be 5c 98 77 bd 72 fb a9 3d d5 86 b0 bd
       -0.18805227 -0.060448036 0.082999125 -0.08619467
000140 18 e8 11 be 3a ce 0e 3e 90 67 04 bd 8a e0 0d 3e
       -0.14248693 0.13945857 -0.032325327 0.13855186
000150 e4 aa 4c be df e8 5c 3e 61 2a 38 be 36 ed f1 3d
       -0.19987065 0.21573208 -0.17984916 0.118128225
000160 11 50 a9 3d 26 a6 ca 3d ac a6 e3 3c d4 2a 81 3d
       0.082672246 0.098949715 0.027789436 0.06306997
000170 2d 81 94 bd 29 de 60 bd 8a 80 b2 bd a1 70 c3 3d
       -0.07251201 -0.05489937 -0.08715923 0.09542967
000180 c9 03 a5 3e c7 4d 1d 3d 86 26 24 be a5 9e 97 bd
       0.3222945 0.038404252 -0.1603032 -0.07403306
000190 67 4d 97 3c c8 76 86 bd 32 0a 73 3d 9c 44 0f 3e
       0.018469526 -0.065656245 0.059335895 0.13991016
0001a0 90 81 13 be ff 3f fd 3d 36 a1 b7 bd 61 b5 d8 bd
       -0.14404893 0.12365722 -0.089662954 -0.1058147
0001b0 1d aa c1 bd e3 af 9b bd ce c0 81 bc 7f a5 0b be
       -0.09456275 -0.07601907 -0.015839007 -0.1363735
0001c0 04 e3 71 3e df 0b 06 be a8 1d 84 bc 5c 7e 1b 3e
       0.23621756 -0.13090466 -0.016127422 0.15184921
0001d0 05 93 ad bd 81 2e 81 3d 4e 7a ae bd f2 8a fe 3c
       -0.084753074 0.06307698 -0.085194215 0.031072114
0001e0 f6 dc fd 3d d3 71 fb 3d f9 3e d1 bd 14 20 9e 3c
       0.123956606 0.122775696 -0.10217089 0.019302405
0001f0 0e 06 ab 3d 4d 81 18 3c f4 8d 87 3d 7d 05 ae bd
       0.08350764 0.009308171 0.06618872 -0.084971406
000200 35 5a 2c 3d 8c 82 c0 bd 21 d4 05 be a1 67 19 be
       0.042078216 -0.093999 -0.13069202 -0.14980938
000210 a1 a8 8f 3d 52 e7 07 3d b8 9e 07 3c 08 92 65 3d
       0.07014585 0.03317959 0.008277588 0.05604747
000220 67 30 7d 3c e9 fd 76 3c 69 97 ad 3d 1f bc 15 3e
       0.015453435 0.015075185 0.08476145 0.14622544
000230 f8 f0 51 be 54 24 4d be 78 45 8d 3d d7 9c 71 3d
       -0.20502079 -0.2003339 0.06898016 0.058987465
000240 b3 cf 09 3c a9 95 b3 bd 40 2e 96 bc 2e bc 8c bc
       0.008411336 -0.0876878 -0.0183326 -0.017179575
000250 e1 79 92 bd 1a a1 90 bc 22 54 7f bd 18 d3 12 3e
       -0.07152153 -0.017654944 -0.062336095 0.14338338
000260 50 e0 87 3e 5c 75 c4 bd ed be 71 3d 0f f2 13 3d
       0.26538324 -0.09592697 0.05901997 0.036119517
000270 45 9f 50 3e 64 da 28 bd 82 22 e0 3d f0 9f 11 bd
       0.20373257 -0.0412239 0.10944082 -0.03555292
000280 b5 67 45 3d ec 1f 8f bd bd 0e 14 bd f3 e0 74 bd
       0.048194606 -0.069885105 -0.036146868 -0.05978484
000290 16 00 85 bd 91 4c d7 bb 5d 8a 3c bd 0f c5 79 3d
       -0.06494157 -0.0065704067 -0.04603039 0.060978945
0002a0 14 6d 02 bd a2 9e be bb 87 e9 fe bb a6 d6 8f bc
       -0.031842306 -0.0058172503 -0.0077793035 -0.017558407
0002b0 25 b0 23 3c b6 69 18 3e 6f 1e 73 be 97 b6 26 3e
       0.009990727 0.14884076 -0.23742078 0.1628059
0002c0 55 f0 97 3d 4d 64 88 be 6c 1c 77 bd 93 b7 82 3d
       0.074188866 -0.26639023 -0.06032984 0.0638267
0002d0 ef 59 3f bc 08 db 42 bc 25 d3 f9 3b fb 70 47 3d
       -0.011679157 -0.011893041 0.0076240473 0.04869173
0002e0 8c d5 ec bd ea 25 c5 3d 21 38 a5 3d 7b 7d b3 3b
       -0.11564168 0.09626372 0.08067346 0.005477605
0002f0 95 bd 0a 3e 9f 90 28 be 25 79 09 be 8d 00 6c 3d
       0.13548882 -0.16461419 -0.13425119 0.057617713
000300 22 1f ce bc 35 c0 3c 3d a3 56 99 bd ca 27 23 3e
       -0.02516133 0.04608174 -0.07487228 0.15933147
000310 d6 d9 86 3e bd 86 84 3d 95 0a 9c 3c a8 5f 0e be
       0.2633807 0.06471012 0.019048015 -0.13903677
000320 12 8a d9 bd af 5e 80 3e 4b 1a d0 bc 7f e5 c9 3d
       -0.10622038 0.25072238 -0.025403162 0.09858226
000330 48 38 4d be f3 24 1c 3e c8 ea fe bc 9f af 84 3d
       -0.20041001 0.1524847 -0.031117812 0.064788096
000340 4e b9 1b be e0 eb a0 bd 2f 2f 93 be c4 ae 8e 3e
       -0.15207407 -0.078574896 -0.28746936 0.2786771
000350 33 14 86 3e 15 18 40 3e 81 e4 c0 bb ed 55 99 3d
       0.26187286 0.18759187 -0.005886615 0.07487092
000360 10 09 b9 bc b8 ca 08 be 62 e0 03 be c3 2e b7 3e
       -0.02258733 -0.13358581 -0.12878564 0.35777864
000370 81 e2 0c be f7 a0 e6 3d 18 f4 fb bd d8 99 46 3d
       -0.1375828 0.1126117 -0.123024166 0.04848656
000380 27 69 1c 3d 15 b9 2a bd 6d 87 40 3e d1 3c 0f be
       0.03818622 -0.041680414 0.18801661 -0.13988043
000390 47 eb 03 3e 34 13 f6 3d 0d ed 45 be e5 f5 59 bc
       0.1288272 0.120153815 -0.19328709 -0.013303255
0003a0 93 3a b6 3b 37 64 07 3e fa 47 b1 3d 9c c0 0b be
       0.005561182 0.13221823 0.086563066 -0.13647693
0003b0 22 ca 58 3d 7e ce cb bd f0 40 64 3d 3b 60 2d be
       0.052927144 -0.09951495 0.05572599 -0.1693124
0003c0 a5 8f 7f bc 54 05 5b 3b f9 66 11 bd b9 e1 59 3e
       -0.015598212 0.0033419924 -0.035498593 0.21277513
0003d0 af 77 f9 3d 31 2a 08 be 94 af 47 bd 0d 46 0f 3d
       0.12181031 -0.13297345 -0.04875143 0.034978915
0003e0 b6 2e 63 be 2f b4 81 3d f9 4f 14 bb 6f 7a 28 bd
       -0.22185788 0.063331954 -0.0022630675 -0.041132387
0003f0 04 8e f6 bc 48 07 11 bd c6 8e a8 bd 57 80 b6 bd
       -0.030097015 -0.035407335 -0.08230357 -0.08911198

apply_B.weight f4 [175, 1, 11, 11]
000000 7b 28 df bd 8b ff 63 bd a8 1e 0b be d2 29 8d 3d
       -0.10896393 -0.055663627 -0.13585913 0.06892742
000010 eb ae ab 3c 95 dc ec 3c 8c 0e 4a bd f0 f4 7d 3d
       0.02095743 0.028913775 -0.04933028 0.06200117
000020 c1 f1 f0 bd 3b 78 f8 bc b1 23 30 bd b1 2c 1b 3d
       -0.11764861 -0.030330768 -0.043002788 0.037884418
000030 a1 ba 0e 3e 44 47 06 3c 34 4f a2 bb af 07 6e bd
       0.13938381 0.008195702 -0.0049532894 -0.058112796
000040 49 ed be bc 25 c0 bd bc c7 c1 19 bc 31 5e 80 3a
       -0.023306506 -0.02316291 -0.009384579 0.0009793696
000050 e2 ca c6 3d dd b6 f4 3c ea 8c d9 bd 93 90 cd 3d
       0.097066656 0.029872352 -0.1062258 0.10037341
000060 0e ca 36 3d 30 ec 1b bd af 14 38 3d 36 11 d8 3d
       0.044626288 -0.038067043 0.0449416 0.10550158
000070 3d 47 36 bc 33 b5 29 bd a4 42 d9 bd fa da 80 3d
       -0.011125383 -0.04143257 -0.10608414 0.062917665
000080 4f ec b8 bb bc 3d 9b bc 2b f4 0b bd dd aa 89 bb
       -0.0056434046 -0.018950336 -0.034168404 -0.0042012767
000090 2c fc 6d 3d 2a dc 21 bd f2 08 75 3d b1 72 ca 3c
       0.058101818 -0.039516605 0.059822984 0.024712892
0000a0 d6 ed 2c bd 25 df df bc f7 92 d2 bc ff ab aa bc
       -0.042219006 -0.027328083 -0.025704844 -0.020833967
0000b0 d3 42 ad 3d a9 2f 49 3d 41 0f 51 3d 01 b9 80 bd
       0.08460011 0.049117718 0.051039938 -0.06285287
0000c0 9c 2f 01 3e 8f 22 85 bc 5b b2 8f bc 5e 4c 4b 3b
       0.12615818 -0.01625183 -0.017541101 0.003102086
0000d0 40 48 2b bd 7f d2 12 3d d6 e6 3a bb 3f 03 6d bd
       -0.04181695 0.035845276 -0.0028518937 -0.057864424
0000e0 5c 02 52 bc 4b 47 aa bb 20 ec ae bc 96 e3 44 3d
       -0.012817945 -0.005196487 -0.021352828 0.048068605
0000f0 be 21 91 3d f8 9c c2 3d 6f 42 d5 bc 6c 4d 4e 3d
       0.07086514 0.09502596 -0.026032655 0.050366804
000100 aa 6f 66 3b 7d 66 88 bc 1d df bb 3c e4 db dc bc
       0.0035161772 -0.016650433 0.022933537 -0.02696032
000110 d5 3e 2b bd 42 9b 28 bd 05 5d d7 3d 0f 05 03 bc
       -0.04180797 -0.04116369 0.10515789 -0.0079968115
000120 ac 5c 74 bd eb 73 58 bc 80 74 8a bc 61 fd 6f bd
       -0.05965869 -0.013211231 -0.016901255 -0.05859125
000130 17 60 14 3d 8d c7 20 3c 73 a6 4e bd 5a 66 ac 3d
       0.03622445 0.009813202 -0.050451707 0.084179595
000140 e6 df ba bd 1a 3d 22 bc 8e 30 f0 bd b5 25 66 3d
       -0.091247365 -0.009902263 -0.11728011 0.056188304
000150 8c bc 9f bd cf be b8 3d da 9a f9 bc db 50 9e 3c
       -0.07799634 0.09020769 -0.030469347 0.019325664
000160 51 17 4b bc 83 fe c8 bc b2 d8 72 bb e3 76 af bc
       -0.012395696 -0.024535423 -0.003705543 -0.021418994
000170 29 a9 ea 3c 45 c0 48 3c 0d 08 06 bc 61 c9 30 3c
       0.028645115 0.012252872 -0.00818063 0.0107902
000180 77 2d 3b bd fc 6d d1 bc 1f 51 b1 bd 94 61 df 3d
       -0.045697656 -0.02556514 -0.08658051 0.109072834
000190 32 17 56 bb 51 1e 6c bd a9 4e b7 3d 16 ca 07 3d
       -0.0032667634 -0.0576461 0.0895055 0.03315171
0001a0 c9 da 1d bd 60 f9 f1 3d 16 f3 8b bd 13 51 76 bc
       -0.038538728 0.11815143 -0.06833474 -0.015033978
0001b0 9c cd 79 3d 9a 87 24 bc 7e 16 46 bd 0f 15 09 3e
       0.0609871 -0.010042096 -0.048361294 0.1338694
0001c0 72 c6 44 bd 31 14 b9 bc cd 08 4f bd 14 98 0e 3c
       -0.048040815 -0.022592636 -0.050545502 0.00870325
0001d0 ed d5 2b bd a1 ca db 3b 54 39 ce bc 09 0c 84 3d
       -0.041952062 0.006707505 -0.02517382 0.06447608
0001e0 47 49 de 3c d9 bc 42 bd 54 67 d9 3c 6d fd 98 bd
       0.02713455 -0.04754338 0.026538529 -0.07470212
0001f0 3a 6a 13 ba d6 28 e1 bc 90 d0 ed bc dc 42 87 bd
       -0.0005623434 -0.027485292 -0.029030114 -0.06604549
000200 cd 40 be 3d d9 e1 2f bc e6 e0 20 bd 36 49 28 bd
       0.092897035 -0.010734999 -0.03927698 -0.041085444
000210 66 d8 80 bd 27 72 9a bd cc 5c e0 3b 43 56 98 bd
       -0.06291275 -0.07541304 0.0068469997 -0.07438328
000220 ec d6 fc bd a8 3e a7 bd a6 f1 2f bd d9 4c 12 3d
       -0.123456806 -0.081662476 -0.042955063 0.03571782
000230 b8 0e 2c bd 3c 22 aa 3d a5 98 17 3e 01 1b ec bd
       -0.042006224 0.08307311 0.14804323 -0.11528588
000240 fb ad 91 3d b3 e8 c0 3d 60 79 4b bd c1 62 2e 3d
       0.07113262 0.09419384 -0.0496763 0.042574648
000250 24 bd 89 3d a5 5a e0 3c 69 3c 77 3d f6 98 ab 3c
       0.06725529 0.027386973 0.060360346 0.02094696
000260 fd 91 f4 b8 4d a1 61 3d e9 8c 83 bc fb 14 f4 bc
       -0.00011662019 0.05508547 -0.016058402 -0.02979516
000270 1b 0b aa bd c6 35 8e 3c 32 c5 02 3d c3 4a 29 3d
       -0.083028995 0.017359626 0.03192634 0.041331064
000280 1d 75 89 3d 55 45 81 3d 5e 61 a3 3d a2 65 85 3d
       0.06711791 0.06312052 0.07977556 0.065135255
000290 31 49 05 3e 4b 83 ac bc 30 3f cf bd 6c 1f a1 3c
       0.13016202 -0.0210587 -0.10119474 0.019668303
0002a0 94 e0 35 3d eb ba a5 3d 56 9b 19 3e 63 28 ab 3d
       0.044403628 0.080922924 0.15000662 0.083573125
0002b0 70 2e e1 3c e6 cb 77 3c 22 49 81 3c c5 52 79 bb
       0.027487963 0.015124297 0.015781943 -0.003804372
0002c0 d1 57 04 bd 87 77 a1 bc e8 14 29 3e 16 77 24 3d
       -0.03231031 -0.019710315 0.16511881 0.04015263
0002d0 11 09 58 3d 59 ca c7 3d d0 82 de 3c 39 ce bf 3c
       0.05274302 0.09755392 0.027161986 0.023413764
0002e0 d3 ae 2e 3b 2a 91 80 bd 4b ea cf bd 4a 20 af 3d
       0.0026654496 -0.06277688 -0.1015211 0.085510805
0002f0 12 a8 ee 3d 2d 1a d1 3d ef 54 84 3d 6f 55 2b 3d
       0.116531506 0.10210071 0.06461512 0.041829523
000300 91 16 d3 3b 80 4f 23 bd 54 bc 40 bd 28 6a 03 be
       0.006441899 -0.03987074 -0.047054604 -0.12833464
000310 1a 23 5a bc b6 02 81 bd 4f 54 ab 3d b0 6f 5e 3d
       -0.013314033 -0.06299345 0.0836569 0.054305732
000320 e4 be 31 bb b4 dc 35 3b a1 73 26 3c c6 1a 51 bd
       -0.0027121836 0.0027749958 0.010159404 -0.051050924
000330 32 83 ac bd 07 2c 05 be e4 80 c2 bd 91 9c cb bc
       -0.08423461 -0.13005076 -0.0949724 -0.02485493
000340 83 68 72 bd 03 b8 9d 3d 17 82 f8 bd 2b 13 31 3e
       -0.0591817 0.07701113 -0.12134188 0.17292468
000350 20 ce 17 3c 1b 8e b5 bd 2d 15 22 be 60 fb cf bd
       0.009265453 -0.08864995 -0.1582839 -0.10155368
000360 af bf 3a bd 17 97 88 bc 79 25 7c bc ff bd 07 3d
       -0.04559296 -0.016673608 -0.015389794 0.03314018
000370 40 fe d8 3d c7 77 94 bd 98 e4 f6 bd 03 23 cb ba
       0.10595369 -0.07249408 -0.120553195 -0.0015498105
000380 dc 49 fa bc ff 66 ca bb d7 63 e8 bc dc 11 23 bb
       -0.030552797 -0.006176829 -0.02836792 -0.0024882471
000390 54 6e f1 3c bd f2 2e 3d d5 7b d8 bd 1b 55 bd 3d
       0.029471554 0.042711962 -0.10570494 0.09244748
0003a0 dd e4 b4 3a f7 c7 0e be 35 f0 5f 3a 95 d4 c0 bd
       0.0013801117 -0.13943468 0.00085425685 -0.09415547
0003b0 58 ea 83 bc 81 37 85 bc 33 ba 2d bd 57 d1 20 3d
       -0.016102955 -0.016261818 -0.0424139 0.039262142
0003c0 cf 1a e2 3c 57 c9 18 3d b5 d2 8b bc 9f b2 1c 3d
       0.027600674 0.037301388 -0.017068246 0.038256284
0003d0 c6 a4 fa 3b 4e bd a5 bc 3b 09 4c bd 9e db 25 bd
       0.007649037 -0.02023187 -0.04981349 -0.040492646
0003e0 fc 82 fc bd 72 4a c1 3b 59 3a c9 bc fc 9e f7 3a
       -0.12329671 0.005898767 -0.024563955 0.0018891986
0003f0 d9 e6 46 bd 0b ca 08 3d b5 d7 27 bd ec 29 08 bc
       -0.048559997 0.03339581 -0.0409772 -0.008310776

apply_C.weight f4 [175, 1, 11, 11]
000000 66 b9 48 bb b6 fd 95 bb 93 49 98 bb 30 5d c9 bb
       -0.0030628084 -0.004577364 -0.0046474426 -0.006145142
000010 d7 28 87 ba 6d a9 30 3b 33 fe c1 ba 0d 0d c0 ba
       -0.0010311854 0.0026956454 -0.0014800489 -0.0014652327
000020 81 c2 7f bb 95 90 8a bb 04 0d 2a ba 4d 8f 12 bb
       -0.0039025845 -0.0042286613 -0.0006486925 -0.0022363246
000030 2b 5e ef bb af 2e 1e bc d0 a2 9b bb 0b 56 03 bb
       -0.007304927 -0.009654685 -0.0047496334 -0.00200403
000040 1d 1f 5b 3b a4 c7 01 3a 12 b3 26 3c 1e fd 72 3b
       0.0033435293 0.0004950708 0.01017453 0.003707714
000050 0c 44 1d 3b 37 98 bb 3b 1b ec cb ba 7d a9 ee ba
       0.0023996858 0.0057249325 -0.0015558036 -0.001820847
000060 25 de a0 bb 25 3c a3 bb 3b 41 ba bb c4 fe 1c bc
       -0.004909294 -0.004981535 -0.0056840456 -0.009582225
000070 b4 40 30 bc 54 60 02 bb 34 a0 7a bb e9 46 04 bb
       -0.010757614 -0.0019893842 -0.003824246 -0.0020183867
000080 fd f3 cc 39 4f 4a 17 3b c9 b7 5c 3a 9a 15 aa 3a
       0.00039091698 0.0023085063 0.000841972 0.0012976408
000090 0d b6 f8 ba 58 8f 1c 3c b3 a2 95 3c 92 f6 b1 3a
       -0.0018975154 0.00955566 0.018266058 0.0013577512
0000a0 ce a7 69 bc 21 54 16 bb b7 26 23 3b 1c 38 d7 bb
       -0.014261199 -0.0022938328 0.0024894902 -0.006567968
0000b0 11 c3 f2 3b 86 86 97 3b 3f fc b3 3b 23 2a 67 3b
       0.0074085076 0.0046241907 0.0054927166 0.0035272918
0000c0 85 bb ff 3c b2 d1 aa 3c 87 8f 91 3c 2d 5f 84 bc
       0.031217346 0.020851944 0.017768634 -0.016158665
0000d0 54 ff 12 bc b8 d2 ec bb a0 f6 4f bc 94 08 16 3b
       -0.008972008 -0.007227268 -0.012693077 0.0022893297
0000e0 98 81 1a 3b f4 47 08 3c 1d 7d 70 3b 1c 0c 3e 3d
       0.002357578 0.008317936 0.0036695667 0.046398267
0000f0 d1 b5 d1 3c 77 72 3b 3d 8d 0c 0c 3c 1a 0f 06 3c
       0.025599392 0.04576346 0.008547914 0.008182311
000100 a9 0a bd 3b a5 8a 13 bb 1c d2 60 b9 ed 8a 08 bb
       0.005769093 -0.0022513059 -0.00021440577 -0.002083476
000110 71 d8 8a bb 66 81 3c 3c 7d 91 87 3c 4b 64 16 3d
       -0.0042372276 0.01150546 0.016548866 0.03671674
000120 1e 0a 04 3c 01 41 c6 ba 4b c5 bf 3b 63 6d d0 ba
       0.008059053 -0.0015125574 0.0058523766 -0.001590174
000130 e3 0c be bb e3 99 0c 3a 0f b0 1a 3b cd e3 d9 3b
       -0.005799876 0.0005363507 0.0023603474 0.0066494704
000140 c9 40 8e 3c fd 67 77 3c d0 28 8f 3c 56 79 53 3c
       0.017364876 0.015100476 0.017475516 0.012907347
000150 e1 8c f3 3a 99 ac 99 3b 33 ad 07 3c c3 a7 ed 3a
       0.0018581414 0.0046897647 0.00828104 0.0018131662
000160 ef 63 7f ba 54 7d c0 3b 57 1d fd 3b 2a 72 7b 3b
       -0.00097423693 0.0058743153 0.007724445 0.0038367608
000170 b6 46 9d 3b 1b 23 11 3b 5c 39 32 3b 98 29 73 bb
       0.004799689 0.0022146169 0.0027194833 -0.003710365
000180 b7 4f ce bb 2d 39 84 3a 4a e3 08 39 4b 7a 5a 3b
       -0.006296124 0.001008784 0.00013054642 0.0033337052
000190 c1 04 7d 3b 6b 71 1e 3c ba 30 e4 3b b5 cb c4 3b
       0.003860757 0.009670596 0.0069638165 0.006005729
0001a0 21 da 02 3b 62 23 22 3b b4 88 7d 3b cb ad 95 ba
       0.001996644 0.0024740328 0.0038686218 -0.0011419592
0001b0 d7 00 89 bb d3 81 1c bb af c7 ff ba 89 f1 84 3a
       -0.0041810083 -0.0023881092 -0.0019514466 0.0010142784
0001c0 1d 73 b9 3b 23 09 59 3a 44 05 9e bb 6f 1d 90 ba
       0.0056594745 0.00082792545 -0.004822405 -0.00109951
0001d0 7b 37 ff 3a ec 9f 71 ba b4 a5 99 bb 6f cf 83 bb
       0.001947149 -0.00092172506 -0.004688943 -0.0040225307
0001e0 46 26 79 ba a1 72 98 39 72 0a 01 39 0f 4f 39 3a
       -0.00095042994 0.00029077104 0.0001230629 0.00070689706
0001f0 22 f8 07 3a 2d 75 32 b7 b5 2f fa 3b 69 5a c4 3b
       0.0005186816 -1.0636909e-05 0.0076350817 0.005992223
000200 21 84 03 3a 9e f9 03 bb 96 92 3d 3b 74 b0 07 3c
       0.0005016942 -0.0020137797 0.0028926483 0.008281816
000210 b1 29 89 bb 4d 1f a1 39 f1 e9 99 ba 29 87 5e 39
       -0.004185878 0.00030731634 -0.0011742694 0.00021221921
000220 1c a5 01 ba 48 57 e8 3b 27 72 90 3c de f8 05 3c
       -0.00049455627 0.007090483 0.017632557 0.00817701
000230 99 e5 bd 3b 83 a8 e8 3b 05 df 62 3c 9c 3d de ba
       0.0057951924 0.0071001663 0.013847117 -0.0016955617
000240 cc a5 df ba 24 cc 3e 3b 83 9c 12 3b bd c9 26 3c
       -0.0017062961 0.0029113377 0.002237112 0.010179934
000250 e6 5f f2 3c 1e 9b 25 3d 7e 68 00 3d 3d fe a0 3c
       0.029586744 0.040431134 0.03134965 0.01965248
000260 d6 75 85 3c 57 eb 53 3c cf 23 c3 3b b0 fe 65 3c
       0.01629154 0.012934527 0.0059551965 0.014037773
000270 2d f2 a7 3c 6c 66 a7 3c 2c 65 2f 3d be 96 56 3d
       0.02050122 0.02043458 0.042821094 0.052389853
000280 48 3b 50 3d 29 b9 15 3d 40 35 8e 3c 91 1a c8 3c
       0.050837785 0.036553536 0.017359376 0.02442673
000290 70 40 66 3c 56 56 91 3b 41 3b 9a 3c 29 a8 fe 3c
       0.014053449 0.004435341 0.018827083 0.031086044
0002a0 0c 92 28 3d 02 8f 4d 3d 88 2d 64 3d ac 9b fe 3c
       0.041154906 0.05018521 0.055707484 0.03108009
0002b0 cb 57 bb 3c c7 73 d6 3c de 4b 0d 3d 09 74 cc 3c
       0.022869011 0.026178254 0.03449618 0.024957674
0002c0 38 11 78 3c 0f b6 ac 3c ed 41 e2 3c c4 d6 fe 3c
       0.015140824 0.021082906 0.027619326 0.031108268
0002d0 86 39 ab 3c d4 83 a6 3c 45 21 78 3c b4 96 8c 3c
       0.020901453 0.020326532 0.015144651 0.017161705
0002e0 79 e8 57 bb 5b 33 29 ba be 33 a7 bb fe 4a c3 3b
       -0.003294496 -0.0006454491 -0.0051026037 0.0059598675
0002f0 c0 9c f6 3b 73 a1 7c 3c a9 e9 33 3c 6e bd 0f 3c
       0.0075260103 0.015419352 0.010981002 0.008773191
000300 d9 e4 f9 bb d7 8b b3 bc 03 ac f3 bc 8a 48 d5 bc
       -0.0076261577 -0.021917267 -0.029745108 -0.026035566
000310 62 19 66 bc 33 83 9e bb 9e dd d0 3b d3 e7 12 3c
       -0.014044138 -0.0048374175 0.006374075 0.008966404
000320 b3 ea 3d 3c ec 97 4e 3c cb 64 1b 3c b8 2c 6a bc
       0.011591601 0.012609463 0.00948448 -0.014292888
000330 44 22 1c bd bc dc 10 bd 7c be ad bc ee db 59 bc
       -0.038118616 -0.03536676 -0.021208994 -0.013297064
000340 05 32 8f bb 97 9b b6 3b 4b 18 a7 3b 8f 11 9f 3b
       -0.0043699765 0.005572747 0.0050993315 0.004854388
000350 dd 4b 5f 3b f2 26 64 b9 e9 06 32 bc f0 c3 9b bc
       0.0034072318 -0.00021758283 -0.010865905 -0.019014329
000360 9a fb 53 bc b8 74 5e bc ab 03 c7 bb 0a 6a 25 bc
       -0.012938404 -0.013577633 -0.0060734353 -0.010096082
000370 a7 8c fc bb 3f fe e8 bb 4a 64 9f bb c5 bd 1d bb
       -0.0077071968 -0.0071103866 -0.0048642503 -0.002406941
000380 bf 66 86 bb e7 2c 94 ba 78 dc 5a bc fd f4 3f bc
       -0.0041016038 -0.0011304886 -0.013358228 -0.011716125
000390 e2 73 21 bc 9c 50 0d bc fa 23 aa bb b4 0a 1e bc
       -0.009854289 -0.008625176 -0.005192277 -0.0096461065
0003a0 da 08 14 bc a3 17 b1 bb e9 76 ca bb 39 1c 02 bb
       -0.0090353135 -0.005404429 -0.006178726 -0.0019853248
0003b0 f4 2f cc 3a c4 64 6f bb 17 80 18 bc 09 6f bc bb
       0.0015578256 -0.0036528567 -0.009307883 -0.005750541
0003c0 7c ec c0 bb e6 ff ca bb 01 8a f1 3b 8c 49 c3 3b
       -0.005887566 -0.0061950563 0.0073711877 0.005959695
0003d0 f4 a5 45 ba 87 f1 90 bb ff 73 25 bc 4d ab d2 bc
       -0.00075396826 -0.0044233236 -0.010098456 -0.025716448
0003e0 4a 71 38 bd 0e ab 0c bd ea 4d 1e bc c1 76 2e bc
       -0.045029916 -0.034342818 -0.009662131 -0.01064843
0003f0 f4 0b 40 bc e3 73 c8 3b 59 28 07 3c a9 27 0c 3c
       -0.0117216 0.0061173304 0.008249366 0.008554378

soft_threshold.threshold f4 [1, 175, 1, 1]
000000 80 99 73 3e 53 9c e8 3d 73 1d fc 3d 99 26 03 3e
       0.23789024 0.113579415 0.123103045 0.12807693
000010 ee 53 1a 3e 4f e4 37 3e d7 76 f4 3d f0 d9 0b 3c
       0.15071079 0.17958187 0.119367294 0.008535847
000020 36 aa 11 3e 7f 3a 22 3e 26 cb 74 3c 36 80 b5 3b
       0.14225087 0.15842627 0.0149410125 0.0055389656
000030 0d ab 36 3e 2d d9 26 3e 32 98 17 bc c7 c7 1e 3e
       0.17838688 0.16293783 -0.009252595 0.15505897
000040 fa 65 51 3e 96 13 27 3e 79 dc 0f 3e ec 8a 09 3e
       0.20449057 0.16316065 0.14048947 0.134319
000050 5b ed 5b 3e 92 7c 51 3e 21 be 20 3e ec 08 1d 3e
       0.21477263 0.20457676 0.15697528 0.15335435
000060 a3 e8 17 3c c6 29 c8 3d 00 1e cd 3d 3d 30 84 3b
       0.0092717735 0.09773593 0.10015488 0.0040340708
000070 f8 09 44 3e 8b ef 34 3e 8e 7d d0 38 ce 83 1d 3e
       0.19144428 0.17669503 9.941599e-05 0.15382311
000080 31 83 02 3e 06 91 f1 3d cb b0 08 3e f7 91 a1 3e
       0.12745358 0.11795239 0.13348691 0.31556675
000090 68 8e 01 3e 9b 4a 31 3a 84 d9 60 3b 39 9c 25 3e
       0.1265198 0.0006763131 0.0034309337 0.16172875
0000a0 03 34 09 3e 95 5e 2b 3e 83 e0 7b 3e 26 b5 13 3e
       0.13398747 0.16735299 0.24597363 0.14424571
0000b0 dd e1 09 3b a4 15 60 3e 7a 49 05 3e cd 06 92 3b
       0.0021039166 0.21883255 0.1301631 0.004456377
0000c0 e2 9e 13 3e a8 cd 00 3e df 68 dc 3c 46 03 53 3e
       0.14416078 0.12578452 0.026905475 0.20606717
0000d0 29 07 2d 3e 52 62 10 3b 81 7e 19 3e db 3e 22 3e
       0.16897263 0.002203126 0.14989664 0.1584429
0000e0 49 b8 1e 3e a1 dd 20 3e 77 94 24 3e 0a cf 0d 3e
       0.15499987 0.15709545 0.1607226 0.1384851
0000f0 66 38 24 3e b3 2b 6c 3e 26 af e8 3d d3 0e 34 3e
       0.1603714 0.23063545 0.11361532 0.1758378
000100 b4 bc a5 bb db 3b df bb 3c a5 1e 3e 03 b9 03 3e
       -0.0050578956 -0.0068125552 0.1549272 0.12863545
000110 9f 34 03 3e 6a f7 ed 3d 0f 7a 7d 3e d4 b4 1f 3e
       0.12813042 0.11619456 0.24753593 0.15596324
000120 dd 40 82 b9 19 61 a7 3d ed 20 1b 3e e1 d6 78 3c
       -0.0002484386 0.08172817 0.15149279 0.01518795
000130 65 d6 27 3e 84 e8 f4 3d 7e 98 39 3e 20 ab 58 3a
       0.16390379 0.11958411 0.18124577 0.00082652457
000140 38 ea 1d 3e 82 b4 9b 3c 85 39 18 3e 04 54 15 3e
       0.15421379 0.019006971 0.14865692 0.1458283
000150 e2 f7 04 3e ec 79 22 3e 0f 01 37 3e 30 b5 4f 3e
       0.12985185 0.15866822 0.17871498 0.20283961
000160 cd 4e 6b 3a d2 5d bc 3d 20 51 70 3e 21 0f 2c 3e
       0.0008976281 0.09197582 0.23468447 0.16802646
000170 dc 77 45 3e 09 4b 2f 3e 5a d7 83 3e b9 0e 13 3e
       0.19284004 0.17118467 0.25750238 0.14361085
000180 0d de 27 3e ad 76 0f 3c 45 60 06 3e a9 ae 1d 3e
       0.163933 0.008756322 0.13122661 0.15398659
000190 0a 87 00 3e 0e ce 0e 3e 84 a8 23 3e fe ec 4b 3e
       0.12551513 0.13945791 0.15982252 0.19914624
0001a0 2f cf 2b 3e 71 64 0b 3e e0 da e8 3d 09 9f 0e 3e
       0.16778253 0.13612534 0.11369872 0.13927855
0001b0 3c 13 17 3e b2 89 56 3e 5b 8e ff 3d a3 c4 3c 3e
       0.14753431 0.20950964 0.12478324 0.18434386
0001c0 de d6 37 3e 29 1b 3c 3e 78 1c 14 3e c3 ab 01 3e
       0.17953059 0.18369736 0.14463985 0.12663178
0001d0 3f e6 77 3a 84 13 44 3c fd 49 2b 3e 88 a8 24 3e
       0.00094566116 0.0119675435 0.16727443 0.16079915
0001e0 7a 5c ff 3d e5 8d ea 3d 16 3f 17 3e fe 10 f4 3d
       0.124688104 0.114528455 0.14770159 0.119173035
0001f0 f5 01 24 3e b9 1b 25 3e 68 5f 2a 3e 4c 07 7c 3e
       0.16016372 0.16123857 0.16637957 0.24612159
000200 98 1f 94 3c bf 26 04 3b 30 a8 ee 3b 44 5a 2f 3e
       0.018081471 0.0020164696 0.007283233 0.17124277
000210 27 cd 0f 3e ea 3b a5 3d b9 ea 23 3e 34 b3 28 3e
       0.14043103 0.08068068 0.16007508 0.1647461
000220 65 94 41 3e e8 1b 4a 3e f2 00 22 3e 16 4d 85 3e
       0.18904264 0.19737208 0.15820673 0.26035374
000230 1b 42 0e 3e ac 32 75 3e 70 8d f7 3d 9b 98 1a 3e
       0.13892405 0.23945111 0.12087524 0.15097277
000240 86 5f 65 3b 7a 5d 47 3e 94 e5 a8 3e f4 ed 1e 3e
       0.0034999563 0.19469252 0.32987654 0.1552046
000250 6c 86 d0 39 8b 71 96 3d f7 ad 30 3e 61 4f 20 3e
       0.00039773004 0.07345875 0.17253862 0.1565528
000260 7f 78 29 3e d6 68 f0 3d 5b 03 ff 3d 3c 86 46 3e
       0.16549872 0.11738746 0.12451812 0.19387144
000270 4e d5 33 3b 1e 7a 04 3e 06 db 8b 3e 7e b6 16 3e
       0.0027440372 0.12937209 0.2731554 0.14718053
000280 1b ec b1 3b d6 7b 0a 3e 49 1b 35 3e 6e 43 e2 3b
       0.0054297573 0.13523802 0.1768619 0.006905011
000290 54 66 8a 3b 31 4a 2c 3e 15 da 41 3e 49 d8 3e 3b
       0.0042236242 0.16825177 0.18930848 0.0029120615
0002a0 e7 0b 4f 3c be 08 b0 3b d7 97 95 3b 8d dd bf 3b
       0.012637115 0.005372136 0.00456522 0.0058552683
0002b0 c5 03 0f 3e 8e 25 7c 3e 66 f5 d2 3d
       0.13966282 0.24623701 0.10300712
