trained_models/sigma_15.model (torch_old, 255742 bytes, 4 tensors)

apply_A.weight f4 [175, 1, 11, 11]
00000000: 2469 a0bd 91ca 64bd 1454 0bbd 63db 853e
00000010: a016 2b3e bdcc 493d 8f04 9e3c f2e9 833e
00000020: 493b cbbe 4d3b 85bc 0021 4dbd f319 af3e
00000030: 744b d73e 7e84 a63e de2f 913e b439 203e
00000040: 5b6f 1e3d 1539 fabd 6c8c 74bc e582 f8bd
00000050: de2c be3d ac99 f6bd c34c 89bc 299a 09be
00000060: 17e3 babc bd81 063f fc22 b03d 5de0 833c
00000070: cd69 563d 24a5 a03e 5a5e 613e 991e b93d
00000080: f92a f23d 423c f7bc 7ace 433d c563 9d3c
00000090: b2ab 9cbc 8414 26bc 6fc5 373d adc4 d03b
000000a0: 4c4e 9d3d b740 12bd 0ec8 37bd 5a5c 033c
000000b0: e4a6 7d3c e538 a2bc 78bc 7d3d 1bb1 6b3d
000000c0: 3fdc 843b 0857 ac3c da96 0b3c 15f1 16ba
000000d0: fb78 333c 618e e83c 3ea9 3abd 172a 9e3c
000000e0: 70cc 0abc f3ca fe3c d59a 77bc dcac bc3b
000000f0: 0940 6fba bbff 6f3c e522 173c a890 72bd
00000100: 3151 ff3c a94d 72bc 9af8 85bc c0f1 f6bc
00000110: e087 33bd 61b2 03ba 3026 fabb 3d40 113a
00000120: af8f 67bc ff42 aabc f620 173d cc5a 853c
00000130: 4971 e9bc b951 dbbc 5091 613d 3239 b63b
00000140: a438 c13a 79c9 c1ba 301c e03c f7cb 98bc
00000150: f524 32ba aaf0 dbbc 3116 88bc 2ae4 2f3c
00000160: d085 c63c d63f 093d a536 863d b959 393c
00000170: 9d6e c13a 2062 36bc 35f6 0e3c 1abd f83c
00000180: e3f6 293d a2f6 8a3d b227 f23c 6fa8 273d
00000190: d93b ab3d 57c6 0b3d 6960 43bc 2d88 383b
000001a0: dac9 2c3c 1473 12bc 47aa 0ebd df69 61bd
000001b0: 5bec b53c bdd7 b9bb bd25 e0bc 5844 88bd
000001c0: c285 00bb 5b23 963d 16d2 afbc 71b1 863c
000001d0: 9874 3d3c c01f 1f3c 7c0a 5f3c 32a8 7f3d
000001e0: 6524 56bd 8eea a53d c7d4 77be 909e 3e3c
000001f0: 8ff0 33bd ff07 1fbb 5d19 153c fb79 de3b
00000200: 8a0e a13d b1da 35bd 055a 20be e416 993d
00000210: 11ff 99bb ee95 143e 0ae3 fe3d 084b 943c
00000220: ba2e 083c bef8 77bd 21be debb 3f28 6abe
00000230: 0537 10be d6f2 0d3d 9f56 88bb 4b2a 023d
00000240: 8fe1 0dbc a1c0 9a3d ba88 1cbc 9d11 92bd
00000250: b655 973d 10f2 48be 50e7 623e 2f93 5cbe
00000260: c030 ef3d 8d5b 573d baef 36bd d600 2b3e
00000270: 8d50 0e3c 60ab 4d3d 5c72 863d d966 2dbd
00000280: cf1d e0bc 7ebd 55be afcd 6f3d b5f7 b9bb
00000290: 1cd6 e2bd e49b 0dbd a4a9 24be 9a91 b03e
000002a0: 4ceb 44be 31ea 783d 7474 0abc f152 333d
000002b0: 0750 8b3d 326e 80be 850e 063e 07ac acbd
000002c0: a574 9e3d 2531 723d 5041 403d 3d97 a63d
000002d0: 0d9a cbbc d202 c83c 63a2 6abc 501b c53c
000002e0: 70d5 84be 0530 ff3d af3a efbc 4310 25be
000002f0: acce 13bd f961 f8bc 24aa d43c aec6 ed3c
00000300: ad94 27bd 7b90 b73d 17bd eabc e631 e53d
00000310: d8fd 593d 71d9 94bc 5ca0 d7bd 273c cc3e
00000320: a799 6dbe 8ae3 463d aecc aebb b313 073b
00000330: 5236 1abe 4cf8 143e 3a96 1fbe 16ae 23be
00000340: 7319 293e f657 bebd 2432 d1bd fd40 2e3d
00000350: bc76 313d e4de 793d 27b6 923b ca09 ebbd
00000360: 2c74 a2be ec6d 11be b3d6 413e ddc2 10be
00000370: f8d9 b63d 5dee 813d 5f91 f03d fe4b 9d3d
00000380: 0cec e63c bc4b 8ebd 59c4 f0bd 2f0c 1b3e
00000390: f047 1fbe 19c3 2fbd 53f2 71bd fc46 dcbd
000003a0: 0e64 b03c b863 9cbc 6b65 3d3e d741 d5bd
000003b0: 5977 a83d 45e7 2f3e 8f4a a2bd 90ed 8a3e
000003c0: 98ae c1bd 77cd 09bd 947b 35bb 610f 1fbd
000003d0: d288 b33d 76ab 54bd 9899 9fbc 6f90 26bc
000003e0: ffa5 193d 62dd 7d3c 2627 e8bd 55d4 383e
000003f0: f024 5dbd 6518 57bd 0b59 06bd b0e6 bcbd
-0.07832554 -0.055857245 -0.03401573 0.2614394 0.1670785 0.04926752 0.019289283 0.25764424
-0.39693668 -0.016263628 -0.0500803 0.34199485 0.42049754 0.3252296 0.28356832 0.15647012
0.038680416 -0.12217919 -0.014926057 -0.12134341 0.092859015 -0.12041029 -0.016760236 -0.13437714
-0.022813363 0.52541715 0.08600423 0.016098196 0.052346993 0.31375992 0.22008649 0.09039039
0.11824603 -0.0301801 0.047804333 0.019212613 -0.01912484 -0.010136727 0.04486602 0.006371102
0.076809496 -0.035706248 -0.04486852 0.008017624 0.015481684 -0.01980252 0.061947316 0.057541948
0.0040545757 0.021037593 0.0085198525 -0.000575797 0.010954137 0.028388204 -0.04557156 0.01930718
-0.008471593 0.031102633 -0.015112598 0.005757911 -0.00091266684 0.014648373 0.009224628 -0.059219986
0.031166645 -0.014789023 -0.016353894 -0.030144572 -0.043830752 -0.0005023834 -0.007633947 0.0005540883
-0.014133378 -0.0207839 0.03689667 0.016278647 -0.028496401 -0.026772367 0.05507022 0.0055610174
0.0014741612 -0.0014784775 0.02735719 -0.018651946 -0.0006795668 -0.026848156 -0.016612144 0.010735551
0.024233729 0.033508144 0.06553391 0.011312895 0.0014757697 -0.011131793 0.0087256925 0.030363608
0.041495215 0.06785323 0.029559944 0.040932115 0.083610244 0.0341247 -0.011924841 0.002815734
0.010546172 -0.00893857 -0.034830358 -0.055032607 0.02220743 -0.00567147 -0.027361745 -0.066536605
-0.0019610976 0.07330962 -0.021462481 0.016442033 0.011563443 0.00971216 0.0136133395 0.062416263
-0.052280802 0.081013784 -0.24202262 0.011634484 -0.043930586 -0.002426624 0.009100285 0.0067894435
0.07864101 -0.044398014 -0.1565934 0.07475069 -0.0046995957 0.14510319 0.12445648 0.018102184
0.008311922 -0.060539953 -0.0067975675 -0.22866915 -0.14083488 0.034655415 -0.0041607167 0.031778615
-0.008659734 0.07556272 -0.0095540825 -0.07132266 0.07389395 -0.1962359 0.22158551 -0.21540521
0.1167922 0.052577544 -0.044662215 0.16699538 0.008686197 0.050212264 0.06564781 -0.04233441
-0.027357964 -0.20873067 0.058545765 -0.005675281 -0.11075994 -0.034572497 -0.16080338 0.34486085
-0.19230384 0.060770217 -0.008450616 0.04378027 0.068023734 -0.25084072 0.13091476 -0.08431249
0.07737092 0.0591289 0.046937287 0.08134315 -0.02485373 0.024415407 -0.014320943 0.024060875
-0.2594409 0.12460331 -0.029202787 -0.16119485 -0.03608577 -0.030320155 0.025960036 0.029025402
-0.040913273 0.08963104 -0.028654618 0.11191158 0.0532206 -0.01817009 -0.10528633 0.39889643
-0.23203145 0.048556842 -0.0053344583 0.0020611107 -0.15059784 0.14547843 -0.1558465 -0.15984377
0.16513614 -0.09294121 -0.10214642 0.042542446 0.043326125 0.06100358 0.0044772807 -0.114764765
-0.31729257 -0.14202088 0.18929558 -0.14136834 0.08928293 0.06344292 0.11746477 0.0768051
0.028188728 -0.06948039 -0.117562 0.15141366 -0.15554786 -0.04291067 -0.05906899 -0.10755727
0.021532085 -0.019090518 0.18495719 -0.104129486 0.08225889 0.17178066 -0.07924377 0.2713437
-0.09457129 -0.033643212 -0.0027692067 -0.038833026 0.08766331 -0.05192133 -0.019482419 -0.010166272
0.03751182 0.015494676 -0.11335592 0.18049748 -0.053990304 -0.0525135 -0.03279976 -0.09223688

apply_B.weight f4 [175, 1, 11, 11]
00000000: c0c8 9ebd 77fc 5a3c 29fb 52bd b23b 99bd
00000010: f5af 04be 7758 e8bd 5568 89bc 2af2 d53c
00000020: 63fc febb ebaf 023b fafd eb3c 2684 773d
00000030: 0805 783d 5e45 8f3d 74a0 533e 466d 813e
00000040: 87bb 9c3d fc88 fe3c 9e55 323d 44e4 a5bc
00000050: ff49 2a3d b75b f0bb 4193 8fbc 3fb1 71bc
00000060: 97c1 8bbc 6ec3 883d 3981 183d 91db c13c
00000070: 8d58 a83d 809f 3b3d 8775 b13c cb0e 043d
00000080: 1e63 58bd ea3f ef3b 2c70 21bb 3dd8 b6bb
00000090: 4da7 a73b 249a ed3b ca8d 77bc dd04 8f3c
000000a0: e383 e1ba 1c25 26bc a8b5 3d3c e36e b13b
000000b0: d2e6 4abc dd8a 1f3b 5445 6cba 3d14 3abc
000000c0: 3801 b1bc f178 3bbc 2486 7abc 50d5 233b
000000d0: 0493 0c3d 42b2 91bb 8d7a 6dbc 2c56 62bb
000000e0: 4b6c db3b 64e1 dabc b837 7f3b e260 723c
000000f0: 376e 7b3b 2570 faba 4046 413c fea2 efbc
00000100: 4f78 983a 587f f0b9 6b7e 2e3b ff53 ccba
00000110: 310a cb3c ce0a 623c 1fa3 57bb cc31 233b
00000120: 9041 613c 74fe cbbb 16f0 763c 16f6 0c3c
00000130: 5a01 27bc 6f7c 3b3b 6f08 cfbc 0dca 29bc
00000140: e417 29ba 1cc8 b03a 97c9 43bc 9dcb 463c
00000150: 95b2 813c 64ba dcbb f1d1 8b3b cea5 fb3a
00000160: c706 6b3c 712d 333c 8212 a83c 08c8 a33c
00000170: 0850 da3b 1aa6 dd3a 8fa6 0cba 702c 833b
00000180: 0d08 843b 5a24 7f3c 8873 89bd 6940 92bc
00000190: a791 c33c 5c1c eabb 7704 47bb f18f 963b
000001a0: 13cb 693c befb 9b3b ab33 f9bc b9d0 d33b
000001b0: b4fc fbbc 1f21 043d 8250 073d 8b16 9e3c
000001c0: 4a84 26bd 1d4c d0bb 68c3 a53c a1c1 14b9
000001d0: c12f 11bc 177a 92bb 9255 64bc abb1 b4bc
000001e0: a078 5e3d 3f7c b9bc eb8c c7bd 23fa 44bd
000001f0: 3f77 2bbd 524f 1dbd 8901 ebbc bdf8 b93c
00000200: 0512 62bc a8d6 893d 3771 93ba b739 d03d
00000210: d193 c83c 6340 0e3e 935f c03b 7648 b43c
00000220: f588 80bd 2a57 b0bd 4ffc 693b 68bf 1ebd
00000230: 9690 84bc 9a21 35bd edf6 54bc 036c 73bd
00000240: e690 ed3a f830 153d 1ed0 873d 14e4 8abd
00000250: f826 45bd c3d1 8abc 1fec 883b 241d 373d
00000260: 2417 a53c 27cd 66bd 2739 373c a2c4 9d3d
00000270: f56a fd3b a318 97bd d8e4 04bd b5a5 aabd
00000280: 0654 93bd bd0b 52bc ea3b 08ba b584 57bd
00000290: 8f69 833c 7ba4 9dbc f71a 933d 8969 8c3d
000002a0: dadf 63bb 912a 2fbb fc91 7dbe 530d 05be
000002b0: c562 16be 2dfc 52bc 6a71 a6bb 4c6b 873c
000002c0: 59b2 c13d 5d92 643c 34ed ff3d 32ab b03d
000002d0: 8055 dd3d 40e8 8bbd b4ae 33be 5916 83bd
000002e0: 1d18 9abc bfad 49bc ebb0 e3bc 118d 66bd
000002f0: 3438 1a3d 2c1f 403d c658 c43d 64dc 303e
00000300: 6f10 533e 2d4a 27bd 9bf6 41bc f72b b7bd
00000310: 8a59 a8bc 559a 27bd 9513 1fbd 6d9f a3bc
00000320: 3962 c93c 599e 753d c0ba 1f3d 9618 403d
00000330: 232c 8a3d 2ab0 f2bc b42c c13c e604 9bbc
00000340: 493a 573c 56bd debc 031c d6bb 1a42 a63d
00000350: fb80 4a3c 5a43 833d 2103 833d 8283 8bbc
00000360: 136e 963d 6fc5 38bc a08f 463d 2585 f8bd
00000370: 0a10 9b3c 65b0 8cbd d162 153d 0996 7a3c
00000380: ac33 aa3c 9b34 a33d 4832 543c fd04 7e3c
00000390: 110e 0a3c 0b64 4d3c 1c14 063b 7512 48bc
000003a0: c109 c53c 548b b7bd ef4e 9abc ca3c 73bc
000003b0: d77d 9a3c 1f46 223d 1531 313d d2b2 11bc
000003c0: 5424 87bd 1803 e93d e0e2 aaba 6ddb bd3c
000003d0: 9e73 f0ba 1b65 b93c 90fe 8fbc 9fb5 8f3b
000003e0: c52c 363d b876 933c efb2 16bd db74 663c
000003f0: 55f3 c0bc e624 6d3c eb03 cc3b 8a3f b1bb
-0.07753134 0.013365856 -0.051509056 -0.07482089 -0.12957747 -0.11344998 -0.016773382 0.02611645
-0.0077815517 0.001994128 0.028807629 0.06042876 0.060551673 0.069956526 0.20666677 0.25278682
0.076529555 0.031071179 0.043538682 -0.020250447 0.041574474 -0.007335152 -0.01752627 -0.014751731
-0.017060084 0.066779 0.03723261 0.023664268 0.08220015 0.045806408 0.021662487 0.03224067
-0.0528289 0.0073013203 -0.002463351 -0.005579977 0.0051163794 0.007251041 -0.015109489 0.017458374
-0.0017205443 -0.0101406835 0.011578955 0.00541483 -0.012384133 0.0024344244 -0.0009013016 -0.011357364
-0.021607026 -0.011442409 -0.015290771 0.002499897 0.034319893 -0.004446299 -0.01449455 -0.0034536226
0.006696259 -0.026718803 0.0038943123 0.0147936065 0.0038365254 -0.0019106908 0.011796534 -0.029252525
0.0011632534 -0.00045871246 0.0026625644 -0.0015588998 0.024785133 0.013796521 -0.0032903624 0.0024901507
0.0137485415 -0.0062254015 0.015071889 0.008603593 -0.010193193 0.0028608104 -0.025272576 -0.010363114
-0.00064503984 0.0013487372 -0.011949918 0.012133506 0.015832225 -0.0067360867 0.0042669703 0.0019199194
0.014344878 0.010936127 0.020516638 0.019992843 0.0066623725 0.0016910464 -0.00053653953 0.0040031
0.00402928 0.015572632 -0.06711489 -0.017852979 0.023873163 -0.007144494 -0.0030367651 0.004594796
0.014269608 0.0047602346 -0.030420145 0.0064640907 -0.030760147 0.03225815 0.033035763 0.019297859
-0.040653504 -0.0063567297 0.020234779 -0.00014186512 -0.008861483 -0.0044701206 -0.013936417 -0.022057375
0.054314256 -0.022642253 -0.09743675 -0.04809011 -0.04186177 -0.038405724 -0.028687255 0.022701615
-0.0137982415 0.067303956 -0.0011248951 0.10167258 0.024484547 0.13891749 0.0058707683 0.022007208
-0.062761225 -0.08610375 0.0035703366 -0.038756758 -0.016182225 -0.044221498 -0.012998325 -0.05942918
0.0018124848 0.036423653 0.06631492 -0.06781784 -0.048132867 -0.016945725 0.0041785385 0.044705525
0.020152636 -0.056347992 0.01118306 0.0770352 0.0077336975 -0.07377746 -0.032444805 -0.08332387
-0.071937606 -0.012820181 -0.0005196916 -0.052616794 0.016041545 -0.01924347 0.071828775 0.06856067
-0.0034770877 -0.0026728252 -0.2476272 -0.12993364 -0.14686115 -0.012877506 -0.005079438 0.016530655
0.09457845 0.013950911 0.12496415 0.08626403 0.108073235 -0.068314075 -0.17547113 -0.06400747
-0.018810326 -0.012309491 -0.027794322 -0.056286875 0.037651256 0.046904728 0.09587245 0.17271572
0.20611738 -0.040842224 -0.0118385805 -0.089439325 -0.020550508 -0.040918667 -0.038837034 -0.019973481
0.024582969 0.059965465 0.038996458 0.046898447 0.067467 -0.029625017 0.023580886 -0.018923234
0.013136455 -0.027189892 -0.006534101 0.081180766 0.012359853 0.06409331 0.06397081 -0.017030481
0.07345214 -0.011277541 0.048476815 -0.1213477 0.018928546 -0.06869582 0.03647119 0.01529456
0.020776592 0.07969018 0.012951441 0.015504119 0.008426205 0.012536059 0.0020458763 -0.012211432
0.024052503 -0.089621216 -0.018836467 -0.014846036 0.018858833 0.039617654 0.0432597 -0.008892732
-0.06598726 0.11377543 -0.0013037585 0.02317592 -0.0018345003 0.022631219 -0.01757744 0.0043856646
0.04447629 0.018000945 -0.036791738 0.014065946 -0.02355353 0.014474129 0.006226053 -0.005409186

apply_C.weight f4 [175, 1, 11, 11]
00000000: 17f8 133c 0a0e 093d 9051 e53c bca3 f23d
00000010: 9be4 bdbc d436 b5bc 57d9 e83b 4d96 ba3c
00000020: 91b4 243c 0759 d23a b4ae 22bb e94e b33c
00000030: a7ce 0e3d db7c 753d c36c 5b3e a6ea c03e
00000040: 16b7 1b3e a47a 6f3d 59fb 283d c96e 163d
00000050: e57e 853c ddae 493c 27ea a73b 335b 4c3c
00000060: 4df6 213d 121a bc3d e244 143e 2ace d13d
00000070: 8eda 063d 0498 083d f344 a73c 052a d63a
00000080: 23a0 243a 8b77 b3ba a5d1 533c addb 0e3c
00000090: a112 8aba 9465 ea3c 2220 373d 9f92 013d
000000a0: 6aea aa3c 743f 4e3c 23db ad3b fa24 7cb9
000000b0: ace1 49bc d56a 93ba 360d 3fbc 1b15 9bbc
000000c0: afdc efba 9c7f c53c 6df9 203c b694 033d
000000d0: d431 893c 40b0 77ba 1fa7 3bbb b9f4 03bc
000000e0: 2406 99bb 5627 68bc 518e 73bc cf3c 883a
000000f0: f499 ce3c e42f f939 e8d0 933c c02c 8b3b
00000100: b06a 8cbb 0a04 b6bb 6877 06ba c012 ed3b
00000110: 4aa3 453c f333 6fba 8331 a23c a083 8b3c
00000120: cc2b bb3b 0b47 7d3c c98f ab3b d30c 19bc
00000130: e185 c5bb 1a23 6f3b 19ba b83b 1e73 22b9
00000140: ce34 d53b 134f bd3b f882 60bb bf8f 613a
00000150: acb1 ce3b 0da3 163c b092 32bb 3c3c 2c3b
00000160: 6d41 653b 0eaa bcb9 be99 443b ee4e 063c
00000170: 532f c13b acd4 a53a 422d ce3a 7d24 303b
00000180: aa7b a1ba 2aeb c6bb 89ad 5d3b e8b4 133b
00000190: 3f85 adba 97ff 9d3a 777a 143c 0f16 26bb
000001a0: d947 c3b8 3617 6cbb 7c21 f33a d1d5 edbb
000001b0: 78f3 2dbb 41fd a139 f0f7 253b 5ed8 aeba
000001c0: 3776 8bbb 1891 323a 9198 b23a 3cdd 683b
000001d0: f192 b83a aad8 de39 a8e5 c7bb f9cb 8dba
000001e0: 8ea2 ef3a 52d3 07bc 2b75 eebb dbfc 42bb
000001f0: 50b4 14bc 8422 89bc fb29 21bd 5ed4 97bc
00000200: d21d 99bb 2a2c 9bbb c100 74b9 9fbc f33a
00000210: 6b2e 4e3b db67 20bb 7d9f c7ba e199 32bc
00000220: 5810 bdbc 054c 20bd 31b9 f9bc ff57 47bc
00000230: 4bd6 49bc db09 04bc 9454 c3b9 5bd3 273c
00000240: 2fd8 a13b f634 723b 93e8 1b3b 4a3b 4cbc
00000250: 5b8b 58bd c414 25bd fddb 91bc f68b 54bc
00000260: d9a9 27bc 9799 32ba 4e61 203c 774f da3b
00000270: 9c85 103c 8172 9c3b 3353 473c 3e2b 0cbd
00000280: caa3 38bd f232 36bd c8a5 95bc 9a8f 02bc
00000290: 3608 42bc cf38 af3c 6307 0f3d 277a bc3c
000002a0: f0a5 04bc 314d 803b 80b1 d7bd 0945 80bd
000002b0: 69ec 3ebd 761f 0abd 195d bebc 6c47 9dbc
000002c0: c4f1 4c3d be18 963d c20c 663d d014 833d
000002d0: 3288 8e3d 71cf a8bc aada b0bd 44b9 29bd
000002e0: db6e 51bd 15f7 edbc becc 74bc 3164 a63c
000002f0: 3e83 003d 28ae 1f3d af08 523d 42dc 713d
00000300: 4a53 3d3d a15d 553b 2f4f b7bb 2f92 83bc
00000310: 22bd a7bc 6000 9ebc 9f5e e03a 8b14 103c
00000320: 9e4b a63c c4a8 1b3d a2fb 633d ac61 6a3c
00000330: b3f6 8d3b 5e2f 5d3c 054b 1e3b a309 5bb9
00000340: b25c 97bb 97a6 8abb da8c 033b 51f1 273c
00000350: 6494 b83c 5c4a 343d 6b55 253d 227f 3b3c
00000360: 6f22 603b cb84 adba 3133 9b3b 7b87 d5bb
00000370: 0a69 fdbb 6670 50bb 2fc0 17bc 3df3 583a
00000380: e422 9a3b 6005 c83c e93a 193c 125f 9d3b
00000390: c10e 733b f6d8 0c3c 1f4d 1c3b 1a78 87bb
000003a0: 267b b039 7705 e839 389f 953b 807b a33b
000003b0: 4c55 303c e3bc 893c c377 3d3c 5e34 153c
000003c0: 8a87 363c 8296 be3b bc13 c7bb ba48 12bc
000003d0: 55a0 c8bb e529 cfbb 48b4 26bc 422e 30bc
000003e0: 8ec6 cdbb 72bc c7bb f70c 58bb 1d67 12bb
000003f0: 4549 cebb 732e 94ba 3db9 a8bb d7f4 25bc
0.009031317 0.033460654 0.027992994 0.11847636 -0.023180297 -0.02212087 0.007105987 0.022776747
0.010052816 0.0016048261 -0.002482337 0.021888213 0.034865048 0.059933525 0.21428208 0.37679023
0.1520656 0.05846657 0.04125533 0.036726747 0.01629586 0.012309757 0.0051243487 0.012472915
0.03954153 0.0918466 0.14479402 0.10244401 0.032923274 0.0333481 0.02041862 0.0016339427
0.0006279966 -0.0013692243 0.012928401 0.008719367 -0.0010534116 0.02861289 0.04470838 0.03163397
0.02086373 0.012588371 0.005305664 -0.00024046368 -0.012321871 -0.0011247048 -0.011660865 -0.018930962
-0.0018300022 0.0241087 0.009825093 0.032124244 0.016747393 -0.00094485655 -0.0028633547 -0.008053952
-0.0046699215 -0.014169535 -0.014865474 0.0010394099 0.025219895 0.00047528662 0.01804395 0.004247278
-0.004285179 -0.0055546807 -0.0005129487 0.007234901 0.012062857 -0.00091248675 0.019799 0.017030537
0.005712008 0.0154588325 0.0052356464 -0.009341436 -0.0060279225 0.0036489428 0.005637419 -0.00015492408
0.006506539 0.0057772486 -0.003425775 0.00086044887 0.006307801 0.009194148 -0.0027248077 0.002628102
0.0034981624 -0.00035984855 0.0029998864 0.008197529 0.005895534 0.0012651882 0.0015730041 0.0026877217
-0.001232018 -0.006070514 0.003382536 0.0022538248 -0.0013238563 0.0012054321 0.009062401 -0.0025342738
-9.311707e-05 -0.0036024577 0.0018549408 -0.007258155 -0.0026542824 0.00030897002 0.0025324784 -0.0013339629
-0.0042560357 0.0006811782 0.0013625791 0.0035532257 0.0014081878 0.00042504567 -0.006100375 -0.0010818235
0.0018282698 -0.008290129 -0.007277151 -0.0029752764 -0.009076193 -0.016740091 -0.039346676 -0.018533882
-0.0046727443 -0.0047354894 -0.00023269934 0.0018595642 0.0031460773 -0.0024475965 -0.0015230026 -0.010900945
-0.023079082 -0.039134998 -0.030483814 -0.012166976 -0.012319158 -0.00805899 -0.00037256314 0.010243262
0.004939101 0.0036957837 0.0023789748 -0.0124653075 -0.052867275 -0.040303007 -0.017805094 -0.012972822
-0.010233366 -0.0006813048 0.009788824 0.006662305 0.008820917 0.004774392 0.012165832 -0.034220926
-0.045078076 -0.04448218 -0.018267527 -0.007968808 -0.011842778 0.021389393 0.034919154 0.023007466
-0.008096203 0.003915452 -0.10531902 -0.062631674 -0.046612177 -0.03372141 -0.023237752 -0.019199096
0.050035253 0.07328938 0.05616451 0.06400454 0.06959571 -0.020606728 -0.08635457 -0.04143645
-0.05113111 -0.029048482 -0.0149413925 0.020311447 0.031375162 0.038984448 0.051277813 0.059047945
0.04622201 0.0032557028 -0.005594156 -0.016060917 -0.020475928 -0.019287288 0.0017118043 0.00879396
0.020299729 0.038002744 0.055659898 0.014305513 0.0043323874 0.013500063 0.0024153602 -0.00020889057
-0.0046192044 -0.004231285 0.0020072968 0.010250405 0.022531696 0.044016227 0.040364664 0.011443885
0.0034200212 -0.0013238428 0.004736327 -0.0065163947 -0.007733469 -0.0031805276 -0.009262129 0.00082759914
0.0047038663 0.024416625 0.009352424 0.004802593 0.0037087651 0.008596649 0.0023849679 -0.0041341903
0.0003366109 0.0004425456 0.0045660995 0.0049890876 0.010762524 0.016813701 0.011564198 0.009106724
0.0111407135 0.005816282 -0.0060753506 -0.008928472 -0.0061226287 -0.006322133 -0.010174818 -0.010753216
-0.006279773 -0.0060954625 -0.0032966712 -0.0022339292 -0.0062953555 -0.0011305347 -0.0051490352 -0.010129175

soft_threshold.threshold f4 [1, 175, 1, 1]
00000000: 8eaa 8b3d 5a08 e23d 75bb 063e 4c10 033e
00000010: 1917 d43d e1e3 ba3b 4de0 913d 930e df3d
00000020: b6b7 f03d d37d 133e 22b8 613b ac3f 563b
00000030: 0804 563d 49b2 433e 3c1a ed3d ca6d bb3d
00000040: da65 be3d f059 873d 9fd5 c33d 833a ef3d
00000050: 6f6b 1f3e c83c 803b c89f 7e3a 1602 5c3e
00000060: 7ed0 013e 8775 013e 8aee c33d a8c2 fd3d
00000070: 64fd d53d 5f8e c33d 5906 d43d b56e cd3d
00000080: 3c35 0d3e 0247 86bd 5c74 683e 6259 d13b
00000090: 4003 cb3d 3aee ad3d 7f3a e13d 38ec b93d
000000a0: f05f 083c 2dd5 333e 0691 ab3d 67e4 e53a
000000b0: a5a1 253e 0048 1e3e f415 bc3d b596 783b
000000c0: b8c8 ff3d 56ec ca3d e884 5b3b f3ea 4c3c
000000d0: 80f6 213b 87b3 b13d 978e 933e 82bb d73d
000000e0: 4758 8f3a 7887 073e b466 923d 58d9 7f38
000000f0: 2d3f fc3d 3a43 b93d 8616 f63d 5464 2e3e
00000100: be8a 6f3d b090 d93d 9976 ec3d 2d5e bc3d
00000110: 6d83 da3d 31b4 353e bac5 e13d 3bc1 d83d
00000120: 0ca6 053e 1639 c83d 635f d93d 1c2d f13d
00000130: f083 033e 63d2 da3d e7b7 fb3d ad90 ff3d
00000140: b9bb 9c3d f902 a73d af66 aa3d ed29 c63d
00000150: 65a8 fb3d ca6d d83d d7a2 973b 4ce3 223e
00000160: 25fb a33d 8807 f33d 3747 c23d a9bd f73d
00000170: 8597 8d3b 2765 153b 64cf b03d ace0 253b
00000180: 99f8 923d d01c ca3d 8967 f53b bb7d 923d
00000190: 09a3 f23d 68fd cf3d e694 3b3e 5b78 c53d
000001a0: 2216 de3d 36e8 b93d 646f 643b 5020 e03d
000001b0: 1d6b b93d 22bf 043e ee7a 0f3e e975 de3d
000001c0: 4ff2 e13d 1b16 d13d 5102 913d 8514 c83d
000001d0: 276e 013e 95fc b53d d52d c63d 804a f73d
000001e0: 72b5 cf3d e152 c43d 8c1f 3e3e c765 f53d
000001f0: 457b ba3d 93fb 9d3b 4864 c53d efd3 d33c
00000200: 6961 8a3b 5b98 8a3c ffc2 583d f2e1 cc3d
00000210: 6e28 d43d 00e9 ae3d df69 253e ed59 ef3d
00000220: f8dc 043e db7c 5e3e 736d 993d 8202 2e3e
00000230: ac08 3a3e 173c 253e 5ac1 af3a 3d7e 993a
00000240: 4cf3 333e 093d 0b3c f11c a13d e460 1b3b
00000250: 8add a23d 4d21 823b a562 cc3d e806 7c3a
00000260: aea8 af3d 6b14 3b3e 374b 063e 619d d73d
00000270: 11cb 253e 7408 b43d d91f 7e3d 0d00 ea3d
00000280: 00ea 4a3e e183 ee3d eb19 903b bb20 0b3e
00000290: 6008 16bd 82b2 da3d 26cc 023e 860b 193e
000002a0: 154e 843d 643c b63d 9d21 023e c8af 2a3e
000002b0: 0ccc 533b 7acd 8f3d ad2b da3d
0.0681964 0.11036749 0.13157447 0.12799186 0.10355968 0.005703435 0.0712286 0.10891452
0.1175379 0.14403467 0.0034442027 0.003269176 0.05224994 0.19110979 0.115772694 0.091518
0.092967704 0.06608951 0.09562229 0.11681082 0.15568326 0.0039134957 0.00097131403 0.2148517
0.1267719 0.1264249 0.09566982 0.12390643 0.10448721 0.095486395 0.10352773 0.10030881
0.13789839 -0.065565124 0.22700638 0.006388829 0.09912729 0.08492704 0.10997485 0.09078258
0.0083236545 0.17561789 0.083772704 0.0017539383 0.16174944 0.15457153 0.09183875 0.0037931625
0.12489456 0.09908359 0.0033495966 0.012507188 0.0024713576 0.0867682 0.28819725 0.10533811
0.0010936343 0.13235271 0.07148495 6.0999155e-05 0.12316737 0.090460256 0.12016015 0.1703046
0.058481924 0.106233 0.11546058 0.0919765 0.10669599 0.17744519 0.110240415 0.10583731
0.13051623 0.09776513 0.10613897 0.11776182 0.12843299 0.10684659 0.12290936 0.124787666
0.07652993 0.08154864 0.083203666 0.096759655 0.12287978 0.105678156 0.0046275663 0.1590702
0.080068864 0.11866671 0.094862394 0.12096722 0.004321041 0.0022795887 0.086333066 0.0025310917
0.071763225 0.09868777 0.007489149 0.071528874 0.11847503 0.10155755 0.18318519 0.096420966
0.10844065 0.09077494 0.0034856433 0.10943663 0.09053633 0.12963536 0.14011738 0.10862333
0.11032545 0.102092944 0.0708052 0.09769539 0.12639676 0.08886067 0.096767105 0.120747566
0.1014203 0.095861204 0.18566722 0.11982303 0.09105543 0.0048212497 0.09638268 0.025857894
0.004223038 0.016918352 0.052920338 0.10004033 0.10359274 0.08540535 0.16153668 0.11687074
0.12974918 0.21727316 0.07491579 0.16993144 0.1816737 0.16136204 0.0013409064 0.0011710596
0.17573279 0.008498439 0.07866848 0.0023708874 0.079524115 0.003971255 0.099797525 0.0009614066
0.08577095 0.18269508 0.1311463 0.105280645 0.16190745 0.08790675 0.06204209 0.11425791
0.19815826 0.11646248 0.004397621 0.13586704 -0.03662908 0.10678579 0.12773189 0.14945802
0.064602055 0.08898237 0.12708135 0.16668618 0.0032317666 0.070216134 0.10652862
